wind_ann_weights.pth (torch, 4737 bytes, 5 tensors)

net.0.weight f4 [16, 4]
000000 d9 48 06 bf 01 f2 ad 3e 9d c0 f4 be d2 94 35 be
       -0.52454907 0.33973697 -0.47803202 -0.17732552
000010 05 c5 84 be f5 43 a1 3e 33 8c 05 bf a4 bb 89 be
       -0.25931564 0.3149716 -0.5216705 -0.2690097
000020 40 aa fb 3d ee 15 68 be 31 d9 b3 3e 36 02 07 bf
       0.12288332 -0.22664616 0.3512664 -0.5273775
000030 83 dd 3a bd 8e 0a 87 bc d3 8a d5 3e 98 6a db be
       -0.045621406 -0.016484525 0.41707477 -0.42854762
000040 e6 1c 4b 3e ae fd c2 be ae d9 f8 be e5 29 d1 be
       0.19835243 -0.38084167 -0.48603576 -0.40852275
000050 0b fb a7 3e 7e a3 ed be 59 9a c8 3e f4 9c 8f bd
       0.32808718 -0.46413797 0.39180258 -0.07012358
000060 35 16 d8 bd 6a e3 f0 be aa 92 bd bd dc b2 f5 be
       -0.10551111 -0.47048503 -0.092564896 -0.4798802
000070 f2 3a 1e 3d 88 ef e7 be fc 03 80 3e 79 7d a3 3e
       0.038630433 -0.45299935 0.2500304 0.31931666
000080 6e 0a 95 3e f2 d0 8c bd 33 5d 78 bd 24 64 1c 3d
       0.2910952 -0.06875791 -0.060635757 0.03818144
000090 8f d9 8d 3e 1a 6b 91 bd e0 1b b2 be d1 8b dd 3e
       0.27705047 -0.07100506 -0.34786892 0.43270734
0000a0 3e 7e 8b be d8 7a e0 be 21 e2 e9 3e 84 06 03 3f
       -0.27244753 -0.43843722 0.45680335 0.5118182
0000b0 1e b4 f1 3e 2d 04 09 bf ac 2e 89 be 45 1b bb 3e
       0.4720773 -0.53521997 -0.2679342 0.36544243
0000c0 75 4e f0 3e 9e 71 8b bd d3 4b aa bd 15 90 b2 be
       0.46934858 -0.0680878 -0.083152436 -0.3487555
0000d0 f8 95 62 3e 12 1f e2 be dd 5b fc 3d f1 23 27 3e
       0.22127521 -0.4416433 0.12322209 0.16322304
0000e0 98 d2 03 bd 60 f8 d4 3e 3c 8e 85 be f7 e6 4c 3e
       -0.03218326 0.41595745 -0.2608508 0.20009981
0000f0 19 8a b2 3e ca 73 cc 3e c9 f6 e3 be 04 51 d1 be
       0.34870985 0.3993209 -0.4452422 -0.40882123

net.0.bias f4 [16]
000000 18 37 e2 3d f9 40 35 3e 5a 9b c7 be b3 ca b3 3e
       0.110456645 0.17700566 -0.3898571 0.35115585
000010 de a2 db be 6c 5e a1 3e 6b 4c 9f be c6 5b ca 3d
       -0.42897695 0.3151735 -0.3111299 0.09880786
000020 d4 96 a0 3e 06 cc e5 3e 22 a8 4f 3e 19 2a 4b be
       0.31365073 0.4488222 0.20278981 -0.19840278
000030 22 fd e3 be 61 98 ac be 87 d6 07 3e 6a 8b d8 be
       -0.44529063 -0.33710006 0.1326543 -0.42293864

net.2.weight f4 [16, 16]
000000 e4 13 4b 3e e0 de e5 bc c7 db 16 3e 48 cc 0e be
       0.19831806 -0.028060377 0.14732276 -0.13945115
000010 d8 70 36 3e d9 f1 d6 bd 24 f1 1b bd 1b 0c 35 be
       0.17816484 -0.104953475 -0.038071766 -0.17680399
000020 ca 06 90 3e ea b3 8b 3e cc 36 48 3e 43 06 c1 3d
       0.2813018 0.272857 0.19552153 0.094250225
000030 8e da 36 be c1 5d 11 bd 54 79 8a bd 87 59 b2 bd
       -0.1785681 -0.0354898 -0.06761423 -0.08708482
000040 10 d5 24 be 16 63 22 3e 04 a7 23 3c c4 81 23 3e
       -0.16096902 0.15858111 0.00998855 0.1596747
000050 88 c4 4e bd bc 60 b0 bd be f6 d6 3c d8 b7 a1 bd
       -0.050480396 -0.086122006 0.026240703 -0.078963935
000060 c6 ad 25 3e 64 5a b1 3c 9d b9 0a be f9 a3 52 3e
       0.1617957 0.021649547 -0.13547368 0.20570363
000070 10 e0 4d bd f7 6b 82 3e 5e c2 20 be 0e 0c 44 3e
       -0.05026251 0.25472996 -0.15699145 0.19145223
000080 b0 d8 1e be d4 fa 64 3e 43 3d fb 3d 19 bb 5b bc
       -0.15512347 0.22361308 0.12267544 -0.013411307
000090 e0 70 e5 bc 55 17 d5 bc 4b 04 02 3e 8e cd 9c 3d
       -0.028007925 -0.026012102 0.1269695 0.07656394
0000a0 ac b6 5e be 9b dd 1a be 0f 7f e7 3d fd 11 a9 3b
       -0.21749371 -0.15123598 0.113035314 0.005159615
0000b0 1b 04 cf 3c d8 86 b2 3d e8 b5 c4 bd bc 88 12 3e
       0.025270512 0.08717126 -0.09605008 0.14309973
0000c0 45 43 3c be 71 c3 76 be 27 26 df bd 33 0e 00 3e
       -0.18385036 -0.24097992 -0.10895949 0.12505417
0000d0 1b e3 35 be 2e e2 36 3e c4 53 88 be 39 20 95 bd
       -0.17762415 0.17859718 -0.26626408 -0.072815366
0000e0 3e 13 31 be db 98 27 be 25 40 82 be 3f 44 15 3e
       -0.17292497 -0.16366903 -0.25439563 0.14576815
0000f0 fd 77 2c 3e f7 81 d9 3d 37 fd ca 3d 4b dc 4d 3e
       0.16842647 0.10620492 0.09911578 0.20103566
000100 68 19 5e bc f6 66 d6 bd 91 a4 a2 3d 9f 82 e5 3d
       -0.013555862 -0.10468857 0.07941545 0.112065546
000110 b8 43 45 3d 1f bc 0d 3e 70 b3 9b 3e ab 45 0e 3e
       0.048160285 0.13841294 0.30410337 0.13893764
000120 01 91 4d 3d 06 c6 03 3e 07 3b 26 3e fd 6e 30 3d
       0.050187115 0.12868509 0.16233455 0.043074597
000130 ef 49 01 bc 4c 8e 27 3e 16 17 47 be c8 14 66 be
       -0.007891162 0.16362876 -0.194424 -0.22468865
000140 00 d7 40 3c 74 b1 28 be 9a fa 32 be 4b c5 06 3d
       0.01177001 -0.16473943 -0.1747841 0.032902997
000150 f0 9c 5e bd 56 64 18 3e 17 c0 8f 3e 1a 9b 25 3e
       -0.054348886 0.14882025 0.2807624 0.16172448
000160 12 a4 ea bd 86 6b 89 3e 57 aa ac 3d 00 67 05 3e
       -0.11457075 0.26839846 0.08430927 0.13027573
000170 2f 77 c0 bd 18 95 05 3e a4 31 1f be 60 34 0f bd
       -0.093977325 0.13045156 -0.1554628 -0.034962058
000180 2c 9a eb 3c ef ca 72 3e 12 3c d6 bd 78 d3 db bb
       0.028760038 0.23710226 -0.10460676 -0.0067085586
000190 76 dc 17 3c 69 1d 41 3e e5 3b 1f 3e ff 2e a6 bd
       0.009268871 0.18858875 0.15550192 -0.081144325
0001a0 d7 d4 dd bd 7e a1 3d be 48 ad aa bd 62 dd 51 3e
       -0.108316116 -0.18518636 -0.08333832 0.20494607
0001b0 5d 02 b7 3d c9 75 c2 3d db bc db 3d 2f 1a d6 3d
       0.08935998 0.09495122 0.10729381 0.10454213
0001c0 0a 37 08 3e 00 fe fb 3d 80 db 6e bd 0b 6c 98 3d
       0.13302246 0.12304306 -0.0583148 0.074424826
0001d0 be f1 42 be 9c 25 25 be 60 96 54 bd a8 c1 2e bd
       -0.1903753 -0.16127628 -0.05190122 -0.042665154
0001e0 65 d8 02 bd 4c 10 0a 3d 1c c0 28 be f8 08 39 bd
       -0.03194465 0.03370695 -0.16479534 -0.04517457
0001f0 c8 38 1e bd 8c 91 fd bd a3 a7 65 bd 52 73 92 be
       -0.03862837 -0.123812765 -0.056068074 -0.28603607
000200 92 29 7a be b2 bb 64 3e 40 71 61 3d d0 5b 43 3e
       -0.2442992 0.22337225 0.055039644 0.19077992
000210 68 1a 5d 3e 82 7a 55 be 72 74 4c 3e 40 14 57 bc
       0.21592104 -0.20847514 0.19966295 -0.013127387
000220 2c 57 f8 bd 1a ae 44 be f8 04 1a be d4 bd 03 be
       -0.12126002 -0.1920704 -0.15040958 -0.12865382
000230 80 76 de 3b 00 64 b0 bd 5c f1 e6 bd 82 75 1c 3e
       0.0067890286 -0.086128235 -0.112765044 0.152792
000240 90 4d a5 bc a9 bd 51 be e5 14 2c bb 3c 41 36 be
       -0.020178586 -0.20482506 -0.0026257571 -0.17798322
000250 5e e5 48 be a8 04 11 3e cb f3 81 3e 53 3e 42 3e
       -0.19618747 0.14161932 0.25381312 0.18969087
000260 8d a0 94 3e 49 86 38 be e2 a4 a8 3d 6d 4e 6c 3e
       0.2902874 -0.18019976 0.08234574 0.23076792
000270 aa 91 63 3e 62 f2 10 3e 05 d3 86 3e 6b 40 8d bb
       0.22223535 0.14154962 0.2633287 -0.0043106577
000280 15 17 47 be 47 05 93 3c 54 59 34 be 6e f5 af 3d
       -0.19442399 0.017946852 -0.17612201 0.08591734
000290 4f 05 2d be f4 2e 15 3e df c4 0a 3e d1 ec 72 3e
       -0.16896556 0.14568692 0.13551663 0.23723151
0002a0 a9 d5 64 3c f6 bc 43 3d 84 b9 02 be 4b 91 96 3e
       0.013966956 0.04778763 -0.12766081 0.29407725
0002b0 68 dc 90 bd 43 0f 12 be 41 48 ae 3d d9 de ac 3d
       -0.07073289 -0.14263634 0.08509875 0.08440942
0002c0 06 89 88 3e b1 84 15 3e a6 85 58 3e 64 16 bb bd
       0.2666704 0.14601399 0.21144733 -0.0913513
0002d0 13 79 98 bc d6 3d c5 bd b0 dc 74 3d 8a 08 30 3e
       -0.01861242 -0.09630935 0.059780777 0.17190757
0002e0 f4 b7 35 3b d4 50 01 be d0 d3 40 3d 90 6e df bd
       0.0027728053 -0.1262849 0.047077 -0.1090976
0002f0 6e ac 2f 3e 6e a4 63 be e6 a1 0f 3e a6 e1 51 3e
       0.1715562 -0.22230694 0.14026603 0.20496234
000300 c4 aa aa 3d e6 10 96 3e 5b 70 31 3e f1 0d 9a 3e
       0.08333352 0.29309767 0.17328016 0.3008876
000310 66 f1 3c bd 29 80 46 be d7 16 38 3e 0d ee a3 bd
       -0.046128653 -0.19384827 0.17977463 -0.08004389
000320 8e 05 17 3e f6 e6 a1 3c 69 e8 95 3e 30 4a 13 be
       0.14748213 0.019763451 0.29278877 -0.14383769
000330 b2 c3 3a 3e 92 88 87 3d 4e d4 0b 3e 26 f2 34 be
       0.18238714 0.066178456 0.13655207 -0.17670497
000340 3e 29 56 be 76 55 70 be bc 53 da 3d 4c 26 81 bd
       -0.2091417 -0.23470101 0.10660502 -0.06306133
000350 f0 f3 05 bd 00 96 0e 3d f0 e5 96 bd 14 df 03 3e
       -0.03270334 0.03481102 -0.07368076 0.12878066
000360 88 d9 7c bd 90 31 d5 bc 06 d8 1e be 68 18 b9 3d
       -0.06173089 -0.02602461 -0.15512094 0.09037858
000370 7e 90 5f 3e 28 f0 67 bd b0 d3 66 bd 8e a9 31 3e
       0.21832463 -0.056625515 -0.056354225 0.17349836
000380 30 b0 37 be a0 93 15 be 34 16 56 be 80 4a d1 bb
       -0.17938304 -0.14607096 -0.20906907 -0.006387055
000390 66 40 3e be 60 b2 ba bc 00 66 ea 3b f4 08 11 be
       -0.18579254 -0.022790134 0.0071532726 -0.14163572
0003a0 f4 89 14 3e 68 27 61 bd 0a 0c 3a be 3c 00 c3 bd
       0.1450575 -0.05496922 -0.18168655 -0.09521529
0003b0 bc 82 3e 3e 0e fc 54 3e 6e 94 09 3e d2 84 08 be
       0.18604559 0.20799276 0.13435528 -0.13331917
0003c0 9c b0 da bd e2 d3 1e be ec 91 1e 3e e4 82 69 3e
       -0.10678217 -0.15510514 0.15485352 0.22803837
0003d0 3c 30 72 3e 5b 25 07 bd 69 39 31 3d cf 3c 6a 3e
       0.23651212 -0.03299461 0.04326764 0.22874759
0003e0 2c 87 40 bd a5 b1 12 be c3 2b 49 3e 59 4d 65 3e
       -0.04700391 -0.14325579 0.196456 0.22392787
0003f0 e9 80 3f 3e 0a a0 67 bd e6 07 35 be 28 0a c2 bd
       0.18701519 -0.05654911 -0.17678794 -0.094745934

net.2.bias f4 [16]
000000 6c 24 58 3e 52 86 af 3d e4 d8 7a be e9 17 78 3b
       0.21107644 0.085705414 -0.244968 0.0037856048
000010 ff a3 f9 3d 7f 0e 1b be b0 a3 5d 3e 89 13 af bd
       0.12189483 -0.15142249 0.21644473 -0.08548648
000020 d2 6b 29 be a0 b1 24 3d 4e 75 7f bc f5 77 dd bd
       -0.16545036 0.04020846 -0.015591932 -0.108138956
000030 31 49 27 be 12 9f 4a be 5c f9 d6 bd fe 19 16 bd
       -0.16336514 -0.19787243 -0.1049678 -0.03664588

net.4.weight f4 [1, 16]
000000 5d 65 47 3e b4 13 45 3e 84 b1 1e bd a7 36 53 be
       0.19472261 0.19245797 -0.03874351 -0.20626317
000010 92 5d 6f 3e 94 11 81 3d 7e f2 85 3e 58 4b 3c bd
       0.23375538 0.06302181 0.2616157 -0.04597029
000020 14 5b be bd 8d 6c 77 3e 3f e6 3a 3e 34 f0 33 3e
       -0.092947155 0.24162503 0.18251894 0.17572099
000030 1d 8b cd 3d f0 8b f8 3c 0c 2f 68 be f0 58 b7 3d
       0.100362994 0.030340165 -0.22674197 0.0895251
