VVR-Workshops/Sentiment Analysis/sentiment_lstm_gpu.pth (torch, 404875 bytes, 6 tensors)

embedding.weight f4 [16, 64]
1.937825 -0.089519784 -0.24655408 0.44343898 2.016073 -0.0761449 -0.27950242 -0.8101947
0.50293463 -0.3252841 0.23099689 -0.15651448 -0.13673116 1.4702893 0.5194034 -1.4666523
-1.7906752 0.16352761 -1.461007 -0.7403879 -0.88532096 1.2623645 0.062698916 0.5129768
1.3503072 -1.4560417 -0.34221646 -1.1431121 -0.23253053 0.55790514 0.73857045 0.803931
-0.528259 1.3522819 -0.52598137 -0.33855793 0.21524797 1.831914 -0.8719081 -1.216468
-0.3770549 1.3578945 -0.79820126 0.48445362 -0.15416843 0.6812406 0.10405291 -0.29686478
-0.80383116 -0.883918 0.030765764 -0.33015907 1.8124328 -0.13975903 2.579977 1.013252
-1.1734519 0.483952 1.2491802 0.894527 -1.4149815 0.78011316 0.39595142 -1.1006774
-0.7019327 0.37704343 -0.9542499 -0.62370646 1.5412598 -0.7120879 -0.6885224 1.1398534
-0.5536099 -1.0753928 0.20215625 -0.16430077 -0.76236504 -1.0478923 -1.3117839 0.04071052
0.8740867 1.229011 -0.63293916 -0.41104057 -0.318684 0.85372597 0.7416189 -2.6417575
-1.7676122 1.5417727 0.30616805 -1.18166 -0.44579834 -2.7377832 0.6084862 0.53396726
0.66080135 -1.1261929 -1.3885285 1.882264 0.6592285 -0.03151386 -0.692808 -0.52537763
-0.8594693 -0.12999526 0.9898526 -1.3270355 1.0229433 0.75201255 0.0061616176 -0.2413798
0.6836863 0.21881446 -0.6300085 -0.10962155 -0.54897535 1.0324385 0.8321598 -1.2336973
-0.31646472 -0.22322032 -2.0295436 -0.7853322 -1.0502349 1.6088697 -0.840794 -0.36591986
-0.34415504 -0.9641837 -0.21066913 1.4353666 0.21502864 -0.499166 0.018060286 -1.0642595
-1.3574986 -1.2603139 -0.10083265 -0.78651285 1.5003625 -2.079482 -0.5134567 0.22708625
0.27374226 0.3242833 -0.32682443 0.14702837 -0.5512722 1.1715604 0.021107359 -0.28570014
-0.71864706 0.59203 0.14601752 -0.26990226 -0.45131972 1.5912951 -0.48694146 -0.93320596
-0.43544593 -0.9665819 -1.2846398 -1.1099149 -1.4253936 1.5232985 -0.5420654 0.6745591
0.54432654 0.0016778791 -0.09548576 0.5385549 1.2094511 -0.6366994 -1.1854918 -2.723262
0.09336927 0.30246365 -0.77674097 -1.2508485 -1.9293704 0.26181453 -1.0001327 -0.66289455
-0.2447343 0.4210643 -1.4018055 1.0857555 1.1552321 0.15191357 -0.89831376 0.6229984
-0.143458 0.9357339 0.6349147 0.3069674 -0.13438416 0.3069481 -1.6932178 0.58832073
-0.24027692 0.30678526 1.3288407 -2.1552165 1.9132224 -0.21398786 -0.21096683 2.4306793
-0.13512494 0.55985254 -0.8608674 -0.46576592 0.23010667 0.74099696 -0.38032573 -0.1933101
1.1022483 -0.8012066 -1.1181649 2.1953044 0.3264392 1.5045288 0.0006774214 0.7642298
-1.755631 -0.29494953 -0.3840337 -0.44927984 0.8665651 -1.0391967 0.52890706 -1.4584497
2.2023237 0.32789052 0.3864984 -0.26451477 0.47889358 -1.0226258 -0.8368619 -0.39836246
-0.85050625 -1.0204015 -1.5507872 0.3117803 0.854763 -0.31092194 0.3274761 0.4749162
0.5491516 0.08730116 0.24587886 0.8258458 -1.3530904 0.31267396 1.4034168 -1.6974963
00000000: a60a f83f 2656 b7bd ac78 7cbe 6f0a e33e
00000010: 5707 0140 dbf1 9bbd f11a 8fbe eb68 4fbf
00000020: 53c0 003f a38b a6be 738a 6c3e 5545 20be
00000030: 4103 0cbe 7132 bc3f 9ff7 043f 43bb bbbf
00000040: d834 e5bf c873 273e 4702 bbbf 108a 3dbf
00000050: 65a4 62bf 2995 a13f 4a68 803d 7352 033f
00000060: ded6 ac3f 935f babf ff36 afbe 7f51 92bf
00000070: 7c1c 6ebe dfd2 0e3f f412 3d3f 6cce 4d3f
00000080: fb3b 07bf 9317 ad3f b7a6 06bf 7757 adbe
00000090: f769 5c3e 287c ea3f 5f35 5fbf 39b5 9bbf
000000a0: 570d c1be 7dcf ad3f eb56 4cbf 4e0a f83e
000000b0: 54de 1dbe c965 2e3f b119 d53d a9fe 97be
000000c0: e1c7 4dbf 7348 62bf 7c08 fc3c 9c0a a9be
000000d0: ccfd e73f fe1c 0fbe 581e 2540 3eb2 813f
000000e0: ac33 96bf 8ec8 f73e 23e5 9f3f b9ff 643f
000000f0: 1d1e b5bf 7fb5 473f 25ba ca3e ffe2 8cbf
00000100: ddb1 33bf d60b c13e b949 74bf 3aab 1fbf
00000110: 0048 c53f 654b 36bf 0143 30bf b7e6 913f
00000120: 61b9 0dbf 79a6 89bf 0c02 4f3e 763e 28be
00000130: 5b2a 43bf 5621 86bf 89e8 a7bf 13c0 263d
00000140: 25c4 5f3f 3c50 9d3f 4d08 22bf e973 d2be
00000150: 8d2a a3be c98d 5a3f bcda 3d3f 8e12 29c0
00000160: 1e41 e2bf cf58 c53f 0fc2 9c3e a340 97bf
00000170: ae3f e4be d737 2fc0 c0c5 1b3f 14b2 083f
00000180: 472a 293f 1727 90bf 4dbb b1bf 07ee f03f
00000190: 33c3 283f ad14 01bd dd5b 31bf 267f 06bf
000001a0: 2e06 5cbf 7a1d 05be fb66 7d3f 4ddc a9bf
000001b0: ceef 823f e583 403f 65e7 c93b 442c 77be
000001c0: 1106 2f3f e610 603e 3d48 21bf 4381 e0bd
000001d0: a689 0cbf f226 843f 6d08 553f cbe9 9dbf
000001e0: aa07 a2be de93 64be 0be4 01c0 880b 49bf
000001f0: 196e 86bf 71ef cd3f 473e 57bf d959 bbbe
00000200: 1735 b0be bed4 76bf a6b9 57be 18ba b73f
00000210: 7830 5c3e b092 ffbe 2af3 933c a839 88bf
00000220: 84c2 adbf f751 a1bf 5981 cebd e858 49bf
00000230: e10b c03f 3c16 05c0 e671 03bf 4c89 683e
00000240: f227 8c3e 7608 a63e 8855 a7be 9b8e 163e
00000250: 2d20 0dbf b1f5 953f 57e9 ac3c 4a47 92be
00000260: 41f9 37bf 478f 173f 9e85 153e a130 8abe
00000270: 6113 e7be 8faf cb3f 6450 f9be 96e6 6ebf
00000280: c5f2 debe e971 77bf 146f a4bf b111 8ebf
00000290: 4c73 b6bf 72fb c23f ccc4 0abf e8af 2c3f
000002a0: fc58 0b3f 48ec db3a 0a8e c3bd bcde 093f
000002b0: 4bcf 9a3f bbfe 22bf 32be 97bf ed49 2ec0
000002c0: 6338 bf3d 84dc 9a3e 7fd8 46bf ce1b a0bf
000002d0: 9cf5 f6bf 8e0c 863e 5904 80bf 75b3 29bf
000002e0: a19b 7abe bd95 d73e 5d6e b3bf 09fa 8a3f
000002f0: a5de 933f 3b8f 1b3e e4f7 65bf d37c 1f3f
00000300: a7e6 12be 428c 6f3f c589 223f d52a 9d3e
00000310: 009c 09be 4d28 9d3e 5cbb d8bf 309c 163f
00000320: 270b 76be f512 9d3e 7417 aa3f 11ef 09c0
00000330: 79e4 f43f a21f 5bbe b007 58be 4090 1b40
00000340: 315e 0abe 7f52 0f3f ce61 5cbf df78 eebe
00000350: 15a1 6b3e fab1 3d3f 0eba c2be 15f3 45be
00000360: 7916 8d3f e01b 4dbf 0720 8fbf de7f 0c40
00000370: 0a23 a73e 6694 c03f fb94 313a 90a4 433f
00000380: 84b8 e0bf a003 97be 11a0 c4be 0208 e6be
00000390: 36d7 5d3f 6604 85bf 7466 073f 7bae babf
000003a0: dff2 0c40 44e1 a73e 1ee3 c53e 7b6e 87be
000003b0: 8a31 f53e 67e5 82bf 953c 56bf 2af6 cbbe
000003c0: c7ba 59bf 849c 82bf 3280 c6bf aba1 9f3e
000003d0: bfd1 5a3f 2931 9fbe f3aa a73e 3728 f33e
000003e0: 3395 0c3f f3ca b23d abc7 7b3e a16a 533f
000003f0: 1132 adbf cd16 a03e 29a3 b33f 8f47 d9bf

lstm.weight_ih_l0 f4 [512, 64]
-0.07464547 0.036064975 -0.031058675 0.053711694 -0.02231739 0.0093854675 0.03309149 -0.08814313
-0.12007156 0.09271514 -0.00076103833 -0.026108436 0.07087006 0.0008365398 -0.031236561 -0.04806593
0.07658286 0.002390168 0.11350431 0.11691605 -0.077035554 -0.03790314 0.061905697 0.035586506
0.009005603 0.06551153 -0.09914171 0.021822328 0.088465855 0.09689006 0.027070101 0.003551655
-0.05033783 -0.037470832 -0.0941036 -0.08607404 0.017293569 -0.08232831 -0.011274809 0.07769554
-0.032894313 -0.08040959 0.029925968 -0.020216538 0.0038861195 0.0496435 -0.025146889 0.051949535
0.0054080836 -0.0388402 -0.02826163 -0.083801344 0.032179162 0.08838804 -0.0060487245 -0.027134348
-0.0522002 -0.091754034 -0.091972016 0.06338249 -0.04599887 0.086521454 -0.0027745022 0.07362315
-0.021858266 0.073943965 0.037762333 0.015546447 -0.050244384 0.08557838 -0.11491985 -0.01647392
-0.023372224 0.06357299 -0.03207006 -0.0653897 0.024967123 0.04689241 -0.014038807 -0.09729702
-0.076230556 -0.03692925 0.006493222 -0.0044964794 -0.041140866 0.1140748 -0.0019004508 -0.08191412
0.09569601 -0.093786344 0.022733677 -0.05633552 -0.09462202 -0.009944889 0.05167996 0.05437237
-0.008671193 -0.10289697 0.0034034257 -0.1256267 0.06353015 -0.0065422324 0.035678137 -0.014079321
0.012762742 0.05380346 0.062003065 -0.06798416 0.069704935 0.0057309987 0.052941706 -0.04279321
0.03251873 0.026580015 -0.0038023426 0.032151494 -0.046239346 0.07365841 -0.02370483 0.01934983
-0.08014647 0.01738973 -0.048266627 0.10108867 0.043371715 -0.035610497 0.0074388124 -0.02418565
0.058410652 -0.049873676 -0.089728154 -0.040794276 -0.028260514 -0.015617741 -0.12314994 -0.013066401
0.09970549 0.00047402098 0.086492576 -0.033209123 0.045004115 0.10486771 0.047215104 -0.012108852
-0.09721735 0.07863843 -0.11739942 0.05921672 -0.051860787 -0.03672297 0.011407822 0.009535611
0.018308733 -0.002116384 -0.055115744 0.05910923 -0.08279736 0.0034867509 0.006330335 0.11328686
-0.11863074 -0.030436914 -0.010429279 -0.07893276 0.006370264 0.002458178 0.06681313 0.037596166
-0.04562019 0.020992987 0.036321167 0.10108696 -0.11243847 0.057764713 0.0218265 -0.028826097
0.041200172 -0.0023695028 -0.06104701 -0.043383874 -0.03531936 0.03968487 0.08707727 0.002524929
-0.0340552 -0.013819331 0.092682734 -0.014839914 -0.025428105 -0.037220854 0.03813627 0.030369079
0.012724329 -0.008609628 0.015039138 -0.033431374 -0.06441214 -0.00034704653 -0.11773562 -0.12434839
0.0002385012 -0.0131761795 -0.040186487 0.08609451 0.0040216586 0.12568714 -0.015429404 -0.038163178
-0.015179126 0.08851168 0.04442372 -0.07378536 -0.008129408 -0.021479247 -0.07728895 0.029594788
0.04122094 0.063276455 -0.117642716 0.085145116 0.047434323 -0.03472649 -0.04585428 0.08999901
0.04632037 -0.038784154 -0.004052821 -0.06455645 0.0971751 -0.023692457 -0.041792117 -0.03495196
0.09703168 0.06002223 0.039688192 0.07317607 -0.015504283 0.006685778 -0.09575247 0.05500406
-0.11207522 -0.06630799 -0.095849045 -0.029040432 0.019669073 0.016477842 -0.033040453 0.013605723
-0.0794114 -0.10548706 -0.016874257 -0.016952826 -0.07058473 0.010681991 -0.047188506 -0.11862641
00000000: b9df 98bd deb8 133d c36e febc cb00 5c3d
00000010: f6d2 b6bc 81c5 193c f18a 073d 6384 b4bd
00000020: 14e8 f5bd 6fe1 bd3d 6b80 47ba 5ce1 d5bc
00000030: 5224 913d 3c4b 5b3a d1e3 ffbc c8e0 44bd
00000040: 79d7 9c3d 5da4 1c3b f374 e83d af71 ef3d
00000050: d1c4 9dbd 5340 1bbd d490 7d3d 28c3 113d
00000060: 3d8c 133c e92a 863d cf0a cbbd bdc4 b23c
00000070: 962d b53d 4c6e c63d 1ec2 dd3c e2c2 683b
00000080: 0a2f 4ebd 047b 19bd 63b9 c0bd 9647 b0bd
00000090: 3eab 8d3c bf9b a8bd fab9 38bc d71e 9f3d
000000a0: 30bc 06bd c8ad a4bd 4e27 f53c 279d a5bc
000000b0: 44ae 7e3b fc56 4b3d d900 cebc 09c9 543d
000000c0: 4b36 b13b e716 1fbd ef84 e7bc 0aa0 abbd
000000d0: 4cce 033d ca04 b53d 6134 c6bb da48 debc
000000e0: e0cf 55bd 8ae9 bbbd d35b bcbd aece 813d
000000f0: 5069 3cbd 2932 b13d 6cd4 35bb bcc7 963d
00000100: 1b10 b3bc ef6f 973d adac 1a3d 86b6 7e3c
00000110: 0ecd 4dbd b843 af3d 195b ebbd 50f4 86bc
00000120: 1b77 bfbc 8e32 823d e55b 03bd 09eb 85bd
00000130: da87 cc3c 4112 403d 0603 66bc a943 c7bd
00000140: c41e 9cbd 2043 17bd 18c5 d43b 3457 93bb
00000150: 5383 28bd 0ca0 e93d 8c18 f9ba 97c2 a7bd
00000160: 45fc c33d 0e13 c0bd fa3b ba3c 13c0 66bd
00000170: 31c9 c1bd e3ef 22bc 5eae 533d 90b5 5e3d
00000180: 9f11 0ebc a6bb d2bd 020c 5f3b 49a4 00be
00000190: 181c 823d 3960 d6bb 3d23 123d f4ac 66bc
000001a0: d21a 513c 0461 5c3d edf6 7d3d 473b 8bbd
000001b0: 76c1 8e3d 1acb bb3b 67d9 583d ef47 2fbd
000001c0: 5c32 053d 55be d93c b930 79bb 49b1 033d
000001d0: 7865 3dbd 38da 963d a230 c2bc 8983 9e3c
000001e0: d523 a4bd e874 8e3c 3ab3 45bd 9407 cf3d
000001f0: 8aa6 313d 50dc 11bd 48c1 f33b fc20 c6bc
00000200: 0240 6f3d 5748 4cbd 65c3 b7bd e617 27bd
00000210: 9882 e7bc 8ee1 7fbc 0936 fcbd 7514 56bc
00000220: 6432 cc3d 0586 f839 0523 b13d 4a06 08bd
00000230: 3c56 383d e2c4 d63d a064 413d 3564 46bc
00000240: e419 c7bd 2f0d a13d 1b6f f0bd 3b8d 723d
00000250: fa6b 54bd d36a 16bd e0e7 3a3c 403b 1c3c
00000260: 32fc 953c 08b3 0abb 0cc1 61bd 851c 723d
00000270: aa91 a9bd f981 643b b36e cf3b f102 e83d
00000280: acf4 f2bd d656 f9bc 91df 2abc 80a7 a1bd
00000290: a6bd d03b 6219 213b 53d5 883d 70fe 193d
000002a0: 3ddc 3abd 7cf9 ab3c 81c5 143d ae06 cf3d
000002b0: 2446 e6bd b19a 6c3d 7dcd b23c b524 ecbc
000002c0: 83c1 283d a949 1bbb 6e0c 7abd 4ab3 31bd
000002d0: 09ab 10bd 9a8c 223d 9155 b23d 4779 253b
000002e0: 777d 0bbd 7a6a 62bc 72d0 bd3d 1c23 73bc
000002f0: 9a4e d0bc e574 18bd c734 1c3d 93c8 f83c
00000300: b479 503c 660f 0dbc b766 763c 56ef 08bd
00000310: 83ea 83bd ccf3 b5b9 5f1f f1bd 5eaa febd
00000320: 2e16 7a39 e7e0 57bc 969a 24bd 5252 b03d
00000330: 1ec8 833b 21b4 003e 9ccb 7cbc fe50 1cbd
00000340: deb1 78bc 9d45 b53d a6f5 353d c71c 97bd
00000350: 3531 05bc 3ff5 afbc ab49 9ebd c570 f23c
00000360: 4ad7 283d 1697 813d aaee f0bd 9060 ae3d
00000370: 7e4a 423d 5d3d 0ebd b3d1 3bbd 6751 b83d
00000380: 6eba 3d3d 22dc 1ebd 87cd 84bb 2c36 84bd
00000390: bd03 c73d af16 c2bc 362e 2bbd c929 0fbd
000003a0: 8cb8 c63d dfd9 753d 1690 223d 56dd 953d
000003b0: ad05 7ebc 5f14 db3b df19 c4bd f04b 613d
000003c0: b187 e5bd 7ccc 87bd 814c c4bd 33e6 edbc
000003d0: 0921 a13c 8afc 863c 6d55 07bd 8aea 5e3c
000003e0: 72a2 a2bd 9a09 d8bd e23b 8abc a7e0 8abc
000003f0: ba8e 90bd 8503 2f3c bc48 41bd 67f2 f2bd

lstm.weight_hh_l0 f4 [512, 128]
-0.043600414 -0.11732768 -0.087163985 0.0512199 0.037769884 -0.001037072 0.005957888 -0.009438219
-0.11186239 0.030730098 -0.03240654 -0.1089082 0.056064293 -0.05428987 -0.016323827 -0.0008269807
0.06933113 -0.048098836 -0.024640834 0.047674876 -0.018342514 0.078750595 0.010131489 0.042806245
0.07564321 0.04529577 0.019740006 0.06201353 0.108609624 0.0035622665 -0.059199575 -0.0546327
0.06284078 0.030553184 -0.05665881 0.07042959 0.009328559 -0.04470222 0.086928286 0.029434947
-0.00071747653 0.042322338 -0.056196187 -0.0024787562 -0.092615 0.019483583 -0.10881327 0.0011276146
0.06341921 0.12251488 -0.08781768 -0.06300468 0.062328484 -0.029086089 0.019704567 0.03315596
-0.03270888 0.06718736 0.10602208 -0.047316693 -0.10751043 -0.043644115 0.05436773 0.06554815
0.026361234 0.03679681 0.02248794 -0.074707165 0.08593063 0.080819875 -0.11586578 0.054256164
0.06705491 0.052801535 -0.05772517 0.08856209 0.096376754 0.044213925 -0.06666624 0.113492265
-0.024132537 0.0923487 0.04076043 0.033943694 -0.10873025 0.0038700227 0.039488465 -0.03065116
-0.034383334 0.041587006 0.07944654 -0.018371297 0.057969823 -0.027158123 0.01730667 0.01152158
-0.023474697 -0.09960486 0.11502737 -0.020657541 0.022940291 -0.045592964 -0.1109931 0.0914012
0.045977887 0.12165768 -0.0029062326 0.082171194 -0.07923006 0.09847929 0.010013665 0.06599818
0.051815927 -0.10887178 -0.033978958 -0.067460865 -0.06900357 0.029945528 -0.020874167 0.046117183
0.0042656455 0.12062102 -0.10981671 -0.09023253 0.05778506 -0.0631276 0.048746295 -0.043831848
0.031536154 0.0142724635 -0.036470782 0.08134314 -0.029904425 -0.00083770364 -0.016313273 0.10752225
0.05583227 -0.018146712 0.0021506902 -0.01657434 -0.020145632 0.0022478807 -0.040966198 0.0086517185
-0.015882349 0.0010368766 0.062165324 0.093081616 -0.09416049 -0.009802895 -0.031612422 0.03557824
-0.07465171 -0.11026822 -0.0026128662 0.0102820555 0.06719115 -0.06768591 0.12266718 0.104009934
-0.018929102 0.049199052 -0.036947973 -0.0048438655 0.0657357 0.0077654766 0.020769091 -7.650446e-05
0.076241955 0.024668852 -0.04863873 0.0070052654 -0.07459079 -0.10804802 0.029789055 0.06517803
-0.10606045 0.018338488 0.04161691 -0.0052907616 0.12120476 0.06949148 0.073152736 -0.0036757004
0.032246172 -0.102891706 -0.018510474 -0.046225015 -0.032855704 0.018387983 0.04195878 0.05690795
-0.04702002 0.08960803 0.027154297 -0.010155633 -0.0007608418 0.09674365 0.07572632 0.12095885
0.054922096 -0.028024241 -0.0116777485 -0.076835684 -0.040461384 -0.031711474 0.05614831 -0.030437138
-0.040788617 0.043719232 -0.008867873 -0.08010685 -0.0131419785 0.0729206 -0.03859998 0.039595857
0.11899224 0.085834526 0.07748253 -0.042469516 -0.0102935275 0.061034843 -0.018998655 0.027534451
0.055703614 -0.06503221 -0.021640947 0.016933072 -0.0039037361 -0.033847004 0.012702258 -0.038384736
0.04406337 0.05667572 0.08014685 0.08425307 -0.043089114 -0.013724374 0.045049503 -0.056613155
0.013183112 -0.050113555 0.04911864 -0.06803725 -0.0834148 0.03432323 0.057954445 0.0136838
0.025018642 0.043353066 0.057440497 -0.08264693 0.08828453 -0.05407799 -0.08748866 0.0680858
00000000: 5996 32bd 7f49 f0bd 0883 b2bd f5cb 513d
00000010: 98b4 1a3d 5dee 87ba 633a c33b c2a2 1abc
00000020: 1c18 e5bd b0bd fb3c b8bc 04bd 430b dfbd
00000030: aca3 653d 0e5f 5ebd 8cb9 85bc bcc9 58ba
00000040: 7bfd 8d3d 4903 45bd 93db c9bc bb46 433d
00000050: 0a43 96bc fe47 a13d 8bfe 253c 9a55 2f3d
00000060: d4ea 9a3d 0f88 393d cbb5 a13c e601 7e3d
00000070: b96e de3d ea74 693b 417b 72bd 8ac6 5fbd
00000080: abb2 803d ac4a fa3c 1113 68bd 643d 903d
00000090: d0d6 183c ad19 37bd 7507 b23d 8f21 f13c
000000a0: 0915 3cba 305a 2d3d f92d 66bd a172 22bb
000000b0: efac bdbd 099c 9f3c 7ed9 debd 78cc 933a
000000c0: eee1 813d 15e9 fa3d c1d9 b3bd 9908 81bd
000000d0: 274c 7f3d f345 eebc 796b a13c 8bce 073d
000000e0: bff9 05bd 8799 893d 1b22 d93d 26cf 41bd
000000f0: 6e2e dcbd 2cc4 32bd b2b0 5e3d 1c3e 863d
00000100: 84f3 d73c 40b8 163d a138 b83c 1200 99bd
00000110: 66fc af3d e484 a53d 0a4b edbd b63b 5e3d
00000120: 1654 893d 6c46 583d 3a71 6cbd 0b60 b53d
00000130: 2d61 c53d a919 353d 4f88 88bd a26e e83d
00000140: 99b1 c5bc 5121 bd3d 69f4 263d 8b08 0b3d
00000150: f7ad debd 35a0 7d3b a8be 213d 2418 fbbc
00000160: 8ad5 0cbd 2357 2a3d deb4 a23d 677f 96bc
00000170: c471 6d3d b67a debc b8c6 8d3c 02c5 3c3c
00000180: 024e c0bc a2fd cbbd 7893 eb3d 013a a9bc
00000190: 47ed bb3c b0bf 3abd 5a50 e3bd 8d30 bb3d
000001a0: 4f53 3c3d a927 f93d 7e76 3ebb 5f49 a83d
000001b0: 5f43 a2bd 83af c93d 5b10 243c 0e2a 873d
000001c0: f03c 543d 2bf8 debd 852d 0bbd ec28 8abd
000001d0: be51 8dbd 5350 f53c 4d00 abbc 5fe5 3c3d
000001e0: d4c6 8b3b 2708 f73d 95e7 e0bd d5cb b8bd
000001f0: 07b0 6c3d 0b49 81bd 32aa 473d 0689 33bd
00000200: 0e2c 013d 0dd7 693c 6362 15bd 3b97 a63d
00000210: 20fa f4bc 5799 5bba 6aa3 85bc a034 dc3d
00000220: 61b0 643d 6aa8 94bc 98f2 0c3b e9c6 87bc
00000230: 7408 a5bc 2e51 133b 2ccc 27bd f0bf 0d3c
00000240: b31b 82bc cee7 873a 11a1 7e3d 93a1 be3d
00000250: 37d7 c0bd 529c 20bc 077c 01bd 7dba 113d
00000260: ffe2 98bd 4ed4 e1bd 9f3c 2bbb 1176 283c
00000270: 839b 893d e99e 8abd ee38 fb3d 2903 d53d
00000280: 3411 9bbc f284 493d c256 17bd 4ab9 9ebb
00000290: 70a0 863d 8a75 fe3b f123 aa3c 0571 a0b8
000002a0: be24 9c3d 5516 ca3c 6839 47bd 6d8c e53b
000002b0: 0ec3 98bd 4848 ddbd 2d08 f43c 0f7c 853d
000002c0: 3936 d9bd 993a 963c 7e76 2a3d 205e adbb
000002d0: 343a f83d 8d51 8e3d 1ad1 953d 05e4 70bb
000002e0: 9014 043d e3b8 d2bd 47a3 97bc 7156 3dbd
000002f0: b493 06bd 65a2 963c f8dc 2b3d 5018 693d
00000300: 1198 40bd 6a84 b73d b072 de3c d063 26bc
00000310: 3b73 47ba 8921 c63d 6716 9b3d 46b9 f73d
00000320: fef5 603d 1893 e5bc 0754 3fbc 075c 9dbd
00000330: d6ba 25bd e4e3 01bd c5fb 653d 4e57 f9bc
00000340: f711 27bd f012 333d 8e4a 11bc 0f0f a4bd
00000350: 7451 57bc 6557 953d 031b 1ebd 442f 223d
00000360: 34b2 f33d 03ca af3d 29af 9e3d 84f4 2dbd
00000370: 2fa6 28bc acff 793d 11a3 9bbc ee8f e13c
00000380: 7929 643d 9b2f 85bd 5b48 b1bc 3ab7 8a3c
00000390: d3d5 7fbb 28a3 0abd 221d 503c 5039 1dbd
000003a0: cb7b 343d cd24 683d 0824 a43d e08c ac3d
000003b0: 367e 30bd 32dc 60bc d485 383d 32e3 67bd
000003c0: fbfd 573c df43 4dbd a130 493d 1d57 8bbd
000003d0: 61d5 aabd 8496 0c3d a461 6d3d 0432 603c
000003e0: e5f3 cc3c fc92 313d ba46 6b3d cb42 a9bd
000003f0: 85ce b43d e280 5dbd 412d b3bd 9170 8b3d

lstm.bias_ih_l0 f4 [512]
0.0817169 0.06663855 0.07008056 -0.012858888 0.086840734 0.03757155 0.040294066 0.022008836
-0.03712822 0.122990884 -0.06697286 0.056266807 -0.04430554 0.07245891 0.015524165 0.10607678
0.07547802 0.009495707 0.06881388 0.10546199 -0.027354917 0.10762192 0.1165053 -0.011506413
0.05137781 0.1265896 0.08393456 0.046067156 0.054924585 -0.03491612 0.07270392 -0.020777652
0.05109446 0.096253365 0.027032243 0.09324611 0.04867013 -0.008742248 0.11146821 -0.034978874
-0.005889111 -0.01537586 0.0029864314 0.057469577 0.020070817 0.09813839 0.10523943 0.022221534
0.005153402 0.12246365 -0.04016491 0.030933822 0.061458014 0.08977368 -0.063394874 0.11675029
-0.043716736 -0.024770027 0.032012235 -0.042308405 0.068952605 -0.02505553 0.06017747 -0.042412836
-0.0026086476 0.023228055 0.07907323 0.118112005 -0.024700386 0.098896034 0.08768851 -0.007806457
0.112962015 0.06883353 8.13884e-05 -0.03044803 0.09764171 0.00910154 -0.04283225 0.115264386
0.062471986 0.043884575 -0.00024676675 0.014868083 0.03635844 0.048903722 -0.015289475 0.095633924
0.045626227 -0.03779222 -0.0150687 -0.025610963 0.026105903 0.082347356 -0.026202857 0.09834436
0.023249244 0.026253683 0.036783483 0.055293817 -0.052137036 -0.048592936 0.025868492 -0.04799553
0.104071036 0.07165647 0.018355196 0.067493096 0.089176714 0.07413228 0.09558071 -0.01831071
0.0108532095 -0.034500986 -0.0017134879 0.0047017 0.04414738 0.03880853 0.083227 -0.02652255
0.09665459 -0.032473944 0.04614276 0.021027481 -0.0144114755 0.110397555 0.10220481 0.10704092
0.026806101 0.026299948 0.0069582914 -0.04390948 0.063144505 -0.020193657 -0.055500403 0.07474384
-0.06387734 0.11445978 0.020261088 0.057015028 0.100826435 0.037101384 0.02140791 -0.037531063
0.054113228 0.067044534 -0.024783833 0.08678543 0.042794093 -0.027821673 0.079039656 -0.016646031
0.058537934 0.119095266 -0.029969143 0.03641799 0.113686085 0.08526966 0.0661777 0.0551208
0.09693368 0.014289973 0.02167246 -0.03445785 -0.04784751 0.08051901 0.057567626 0.03149062
0.08981367 0.07720538 0.085069574 -0.034934547 0.019055877 0.10154299 -0.06293276 0.015282337
-0.092243254 0.12370727 0.009772936 -0.019987356 0.0738926 -0.06189471 -0.055641588 0.047402665
0.10965678 -0.014531974 0.04435249 -0.0349848 0.022145445 0.05684272 0.074570954 0.04282325
0.083085574 -0.012157883 0.07533239 0.12559395 0.10064885 0.11141518 0.002433635 0.08811063
-0.02440921 -0.034738287 0.056720804 -0.009701678 0.019344443 0.02133253 -0.016184697 -0.016167773
-0.065263025 0.034714993 0.032141652 0.0016856772 -0.0544937 0.0058426466 -0.053190395 0.08242737
0.0814351 0.06927362 -0.031185614 0.038926397 0.008525769 -0.021721682 0.08736008 -0.05432668
0.11188252 0.016636332 0.039689958 0.07497436 0.077215746 0.09495388 -0.037515543 0.071692966
0.02619323 -0.036135986 0.09084659 0.10479967 -0.008124005 0.06609735 -0.049128436 0.08059067
0.032223802 -0.034132984 0.013294661 0.013568268 0.092479125 -0.022085924 -0.047618 -0.007703825
-0.030498115 0.08379951 0.08320126 0.0060439957 0.04256804 -0.088139355 0.09979563 0.07984825
00000000: 315b a73d cb79 883d 6686 8f3d 16ae 52bc
00000010: 8ed9 b13d a0e4 193d 640b 253d e04b b43c
00000020: c313 18bd a5e2 fb3d 1129 89bd 0678 663d
00000030: ba79 35bd 5665 943d 1159 7e3c c83e d93d
00000040: 3894 9a3d e293 1b3c 4bee 8c3d 75fc d73d
00000050: 6b17 e0bc e268 dc3d 559a ee3d 6585 3cbc
00000060: 8a71 523d b4a0 013e e2e5 ab3d eab0 3c3d
00000070: 9af8 603d 3504 0fbd cbe5 943d e535 aabc
00000080: 6d48 513d 7c20 c53d b972 dd3c d1f7 be3d
00000090: 555a 473d a53b 0fbc 7249 e43d 0246 0fbd
000000a0: 72f9 c0bb 08eb 7bbc 01b8 433b 3865 6b3d
000000b0: 8e6b a43c c8fc c83d c587 d73d ef09 b63c
000000c0: dfdd a83b 39ce fa3d f683 24bd ed68 fd3c
000000d0: 66bb 7b3d 43db b73d 2cd5 81bd c71a ef3d
000000e0: 5210 33bd 83ea cabc 431f 033d 944b 2dbd
000000f0: 0637 8d3d 4141 cdbc a77c 763d 15b9 2dbd
00000100: d8f5 2abb c348 be3c 25f1 a13d b5e4 f13d
00000110: 7758 cabc 018a ca3d 0996 b33d 4fcd ffbb
00000120: a158 e73d 98f8 8c3d 11af aa38 266e f9bc
00000130: 60f8 c73d a01e 153c df70 2fbd bc0f ec3d
00000140: a0e2 7f3d 50c0 333d 7960 81b9 4399 733c
00000150: 96ec 143d 454f 483d b580 7abc b8db c33d
00000160: 91e2 3a3d 04cc 1abd b5e2 76bc 15ce d1bc
00000170: 0cdc d53c bba5 a83d 60a7 d6bc c568 c93d
00000180: 3375 be3c f711 d73c 47aa 163d c57b 623d
00000190: a58d 55bd 6309 47bd 29ea d33c f696 44bd
000001a0: 3223 d53d a1c0 923d a35d 963c d239 8a3d
000001b0: 48a2 b63d aad2 973d d2bf c33d 5800 96bc
000001c0: a9d1 313c e850 0dbd 1d97 e0ba b810 9a3b
000001d0: e2d3 343d b1f5 1e3d eb72 aa3d d245 d9bc
000001e0: d7f2 c53d 6603 05bd 3100 3d3d d341 ac3c
000001f0: 1c1e 6cbc 1d18 e23d c150 d13d 4538 db3d
00000200: 7898 db3c fd72 d73c 6102 e43b 6dda 33bd
00000210: e851 813d 2b6d a5bc 6454 63bd 4c13 993d
00000220: 1fd2 82bd e469 ea3d 95fa a53c 9788 693d
00000230: 177e ce3d 9ff7 173d a45f af3c 2cba 19bd
00000240: d5a5 5d3d a54e 893d 7707 cbbc 8fbc b13d
00000250: dc48 2f3d 47ea e3bc 8bdf a13d 425d 88bc
00000260: 79c5 6f3d 38e8 f33d d981 f5bc 082b 153d
00000270: 40d4 e83d dca1 ae3d 2d88 873d 59c6 613d
00000280: 2a85 c63d 7e20 6a3c 718a b13c ad23 0dbd
00000290: c0fb 43bd 27e7 a43d 08cc 6b3d 4ffc 003d
000002a0: 3bf0 b73d db1d 9e3d f538 ae3d 8717 0fbd
000002b0: 121b 9c3c c5f5 cf3d e4e2 80bd c462 7a3c
000002c0: 08ea bcbd 3d5a fd3d aa1e 203c 86bc a3bc
000002d0: 0155 973d 4f85 7dbd 6fe8 63bd 4c29 423d
000002e0: bc93 e03d 8417 6ebc f5aa 353d 394c 0fbd
000002f0: 5d6a b53c e9d3 683d a8b8 983d 6f67 2f3d
00000300: c528 aa3d db31 47bc de47 9a3d b39b 003e
00000310: fc20 ce3d a42d e43d 9f7d 1f3b 5973 b43d
00000320: d3f5 c7bc bc49 0ebd 1354 683d c9f3 1ebc
00000330: 3d78 9e3c 8fc1 ae3c c595 84bc 4772 84bc
00000340: 9fa8 85bd 4f31 0e3d f7a6 033d f1f1 dc3a
00000350: c934 5fbd ac73 bf3b 2cde 59bd aecf a83d
00000360: 72c7 a63d 54df 8d3d f978 ffbc 4971 1f3d
00000370: abaf 0b3c abf1 b1bc d7e9 b23d a785 5ebd
00000380: aa22 e53d eb48 883c f091 223d 288c 993d
00000390: 4a23 9e3d 2e77 c23d e6a9 19bd c3d3 923d
000003a0: 2f93 d63c 5403 14bd c70d ba3d 36a1 d63d
000003b0: 8c1a 05bc 0c5e 873d e63a 49bd b90c a53d
000003c0: 1bfd 033d 07cf 0bbd dad1 593c 714d 5e3c
000003d0: b265 bd3d 8aed b4bc 180b 43bd 5e70 fcbb
000003e0: 2fd7 f9bc 149f ab3d 6c65 aa3d b60c c63b
000003f0: d35b 2e3d 6882 b4bd a761 cc3d 7b87 a33d

lstm.bias_hh_l0 f4 [512]
0.09643231 0.025763774 0.035574976 0.05465849 0.011415884 -0.02698488 0.007516794 0.054588974
0.006792223 -3.9075316e-05 0.077321075 0.04855407 0.07210955 0.074951515 0.021309732 0.054480173
0.08900488 0.053225454 0.08993762 0.07309175 0.035305455 0.045022987 -0.0073704743 0.0070381924
0.08841766 0.12538917 -0.010428485 0.10649177 0.0107575515 -0.04192285 -0.021444162 0.04518212
-0.033290725 0.08150692 -0.054210763 0.05794069 0.08941822 -0.025036477 -0.009353838 0.009592856
0.042973462 0.11408726 0.10281704 0.006776003 -0.036165345 0.0029325474 0.01668582 0.013734139
0.06113646 0.11834752 -0.06228979 0.019833636 0.060882624 -0.002616134 -0.0141064515 -0.054998808
-0.029994562 0.08723949 0.104315646 0.026030587 0.0058467607 0.093040265 0.045536373 0.040081702
0.053362142 -0.036391504 0.032982383 0.093531504 0.0150052905 0.088710345 -0.033934854 0.12537815
0.017648147 0.11303178 0.021257138 0.051610753 0.08125007 0.08219515 0.10960925 -0.009287903
-0.045127567 0.0175454 0.053401873 -0.003689857 0.062454548 -0.03890323 0.021775775 0.09115226
-0.01770369 0.03050781 -0.015800262 0.008041827 0.047846332 0.04886969 -0.005762057 0.034067225
-0.021233028 -0.056163024 0.104163006 0.07438024 0.056188554 0.06319778 0.10767552 0.09910322
-0.026519626 0.07254123 0.099624425 0.10172981 0.110098235 0.09693638 0.018786522 0.07087344
0.0491475 0.120669186 0.088694975 -0.06114245 0.088951774 0.06581773 0.08749132 0.0948021
0.06281315 -0.043020077 -0.045939565 0.015184541 -0.016448231 0.024374167 -0.057151873 0.0660162
0.055864498 0.036914695 -0.047297794 0.08177096 -0.05546533 0.07033484 -0.000999369 0.016797556
0.05843655 0.0067048226 0.07737625 -0.04874834 0.06029447 0.071314976 -0.025092563 0.087520264
-0.03370128 0.026326194 0.11254761 0.060435213 0.118578106 0.1187666 0.07921041 0.10510008
0.04244033 0.064236365 -0.037446793 -0.02854994 0.10675934 0.094593175 0.09270366 0.0069891587
0.1092484 -0.012658634 0.072216876 0.032072663 -0.0040516388 0.03461303 0.047654606 0.095837474
-0.024042144 -0.05445987 0.025166782 0.046625584 -0.040243257 -0.047797125 0.04512191 -0.039627302
0.05895996 0.038394976 -0.0476076 0.070868276 0.009878509 -0.08299639 -0.02067063 0.019959534
-0.025671782 0.04205869 -0.022890283 -0.020118205 -0.013848285 -0.03698682 0.0889145 0.029210225
-0.007841928 0.0024875908 -0.016463667 0.000550092 0.035883516 0.09810269 0.075561896 0.07353053
0.10657025 0.02506582 0.09299165 -0.028736796 0.08438528 0.023541842 -0.05511586 -0.045245573
0.08794338 -0.033664107 -0.00055854494 0.07561399 0.016596073 0.05563892 0.052968714 0.12129226
-0.040143415 -0.016212713 0.052018266 0.054247312 0.018268285 0.09043727 -0.01183364 -0.0065534315
-0.046715 0.034962054 0.012953462 -0.042515755 -0.00937563 -0.04353415 0.015732853 -0.0076639624
-0.015260137 0.115200125 0.09637912 0.06620061 -0.0030033202 0.04580916 0.08396646 0.11930336
0.046928786 0.011735039 0.09089895 -0.0042611356 -0.038804956 0.02419606 0.04733736 0.06630454
0.03578611 -0.0030200912 0.03556329 -0.05244251 0.007541157 -0.037600454 -0.03885517 0.0068127806
00000000: 4e7e c53d 8d0e d33c 11b7 113d 95e1 5f3d
00000010: b009 3b3c 650f ddbc 704f f63b b098 5f3d
00000020: 4c91 de3b cde4 23b8 835a 9e3d a2e0 463d
00000030: 2cae 933d 2e80 993d bf91 ae3c 9a26 5f3d
00000040: 3148 b63d ef02 5a3d 3731 b83d 21b1 953d
00000050: 749c 103d 066a 383d 0584 f1bb a3a0 e63b
00000060: 5114 b53d 0566 003e 3ddc 2abc 5b18 da3d
00000070: 7140 303c 4bb7 2bbd abab afbc e310 393d
00000080: db5b 08bd 1aed a63d 1b0c 5ebd 3853 6d3d
00000090: e620 b73d 4c19 cdbc d740 19bc 5b2b 1d3c
000000a0: f104 303d 95a6 e93d be91 d23d 3c09 de3b
000000b0: 1d22 14bd fb2f 403b b3b0 883c 2705 613c
000000c0: 3a6a 7a3d 2f60 f23d 9423 7fbd 267a a23c
000000d0: 0f60 793d 7273 2bbb bf1e 67bc 6e46 61bd
000000e0: 28b7 f5bc 9eaa b23d 71a3 d53d 193e d53c
000000f0: 2f96 bf3b e58b be3d 5984 3a3d b62c 243d
00000100: 4392 5a3d 420f 15bd 8918 073d 728d bf3d
00000110: c0d8 753c c5ad b53d 46ff 0abd 2163 003e
00000120: d992 903c 357d e73d 7323 ae3c cc65 533d
00000130: 7066 a63d ee55 a83d d17a e03d 4a2c 18bc
00000140: afd7 38bd 5fbb 8f3c ecbb 5a3d 87d1 71bb
00000150: 57d0 7f3d fe58 1fbd 1c63 b23c 09ae ba3d
00000160: 5407 91bc 84eb f93c 8d6f 81bc dec1 033c
00000170: 84fa 433d 962b 483d a3cf bcbb 138a 0b3d
00000180: e3f0 adbc 330b 66bd 6a53 d53d ab54 983d
00000190: f825 663d d66d 813d fc84 dc3d a1f6 ca3d
000001a0: b03f d9bc 7f90 943d e407 cc3d b857 d03d
000001b0: 2f7b e13d 9586 c63d 31e6 993c 1826 913d
000001c0: e44e 493d 6821 f73d b6a5 b53d 8170 7abd
000001d0: 592c b63d 72cb 863d a62e b33d 9a27 c23d
000001e0: 2ea4 803d d235 30bd 202b 3cbd 95c8 783c
000001f0: 71be 86bc 55ac c73c 1518 6abd 8033 873d
00000200: 2cd2 643d dd33 173d 55bb 41bd 8877 a73d
00000210: 9d2f 63bd b60b 903d 42fd 82ba 079b 893c
00000220: 2a5b 6f3d 21b4 db3b 7077 9e3d 57ac 47bd
00000230: 56f7 763d 960d 923d eb8e cdbc d33d b33d
00000240: 5a0a 0abd 08aa d73c 5d7f e63d ea8a 773d
00000250: 14d9 f23d e73b f33d 1139 a23d b63e d73d
00000260: e9d5 2d3d 5b8e 833d cf61 19bd 90e1 e9bc
00000270: a4a4 da3d 11ba c13d 6bdb bd3d 5005 e53b
00000280: a0bd df3d 2966 4fbc 71e6 933d a05e 033d
00000290: 9cc3 84bb 64c6 0d3d 7a31 433d 7046 c43d
000002a0: 08f4 c4bc 5011 5fbd 912a ce3c 78fa 3e3d
000002b0: 1dd6 24bd ebc6 43bd c0d1 383d 3d50 22bd
000002c0: 0080 713d 0d44 1d3d 3000 43bd 6323 913d
000002d0: 78d9 213c 03fa a9bd 7455 a9bc 2d82 a33c
000002e0: a14d d2bc bc45 2c3d 6784 bbbc efce a4bc
000002f0: ebe3 62bc 7e7f 17bd ce18 b63d 484a ef3c
00000300: 6e7b 00bc d906 233b d0de 86bc 0d34 103a
00000310: 98fa 123d 10ea c83d 32c0 9a3d 2d97 963d
00000320: 8141 da3d d656 cd3c 6872 be3d 6e69 ebbc
00000330: 31d2 ac3d d2da c03c 2bc1 61bd 6c53 39bd
00000340: a91b b43d 60e3 09bd 516b 12ba 82db 9a3d
00000350: 7df4 873c a3e5 633d b9f5 583d 1468 f83d
00000360: 6c6d 24bd 86d0 84bc 1b11 553d 6e32 5e3d
00000370: 5fa7 953c 2d37 b93d e2e1 41bc 2bbe d6bb
00000380: 3a58 3fbd 5f34 0f3d c23a 543c 0025 2ebd
00000390: 3e9c 19bc dd50 32bd 2fe2 803c fa21 fbbb
000003a0: a705 7abc 0bee eb3d 6b62 c53d 2f94 873d
000003b0: 5ad3 44bb 63a2 3b3d 9bf6 ab3d 5255 f43d
000003c0: 6638 403d 5244 403c 3b29 ba3d ffa0 8bbb
000003d0: f2f1 1ebd d136 c63c d2e4 413d adca 873d
000003e0: 7594 123d b9ec 45bb d0aa 113d f5cd 56bd
000003f0: cf1b f73b ef02 1abd 9926 1fbd bf3d df3b

fc.weight f4 [1, 128]
-0.08946468 0.03801479 0.1210462 -0.043534722 -0.11452578 0.056937903 -0.12597658 0.097693816
-0.080394775 -0.053352278 0.10654005 0.044014998 -0.09845589 0.08992371 -0.095188715 -0.09866994
-0.061523944 0.10771143 -0.061108068 -0.12364796 0.05743974 -0.10803804 -0.13014461 0.04501715
-0.09621887 0.12242058 0.07947833 -0.060948905 -0.053065304 -0.04803911 0.055682477 0.10918186
-0.07641623 -0.07883761 0.0773932 -0.06007671 -0.072637774 -0.056133255 -0.03994968 0.06032259
0.060899157 -0.088779986 -0.05517996 0.061971612 -0.08642535 0.082911916 0.04225711 -0.083730675
-0.0876098 -0.05590239 -0.05501958 0.046287593 -0.053995673 0.06369498 0.068943806 0.059362106
-0.111830465 0.090242736 -0.07429614 0.11226425 0.060777016 0.11253506 0.059088435 0.06938882
-0.10179287 -0.098614134 0.060850386 0.057724662 -0.046603736 -0.07831973 0.04744822 -0.027111644
-0.06648668 -0.092743926 -0.107363544 -0.07580225 -0.05899161 -0.08172477 0.09301979 -0.13028103
0.10427299 0.11534632 -0.022571558 0.091490254 -0.091116905 -0.11159836 0.053727888 -0.08886468
0.0455704 0.07333101 -0.03095231 0.066459954 -0.05390144 0.10849227 0.107797615 0.056310747
-0.05446539 0.1207402 -0.1250496 0.123671554 -0.10865494 0.0776326 0.045903325 -0.06977782
0.032009494 -0.11470259 -0.10142013 -0.031549305 -0.039307095 -0.05478755 -0.1184464 -0.073568866
-0.13142322 0.090194665 -0.11370529 -0.08900759 0.10274715 -0.0239092 -0.07996748 0.06986611
-0.07095727 0.07004723 0.10262563 0.08092901 -0.0407865 -0.0721154 -0.044633407 -0.04887237
00000000: 4239 b7bd 65b5 1b3d 12e7 f73d 7751 32bd
00000010: 7e8c eabd b837 693d 0100 01be b213 c83d
00000020: 04a6 a4bd eb87 5abd ab31 da3d 1249 343d
00000030: 3ea3 c9bd ec29 b83d 4df2 c2bd 7713 cabd
00000040: 8800 7cbd cf97 dc3d 744c 7abd 243b fdbd
00000050: ef45 6b3d 0c43 ddbd a144 05be e763 383d
00000060: 660e c5bd a4b7 fa3d 89c5 a23d 8fa5 79bd
00000070: 015b 59bd a8c4 44bd 4f13 643d bd9a df3d
00000080: 1d80 9cbd 9d75 a1bd 5380 9e3d ff12 76bd
00000090: 1dc3 94bd fceb 65bd 47a2 23bd d214 773d
000000a0: 6571 793d 48d2 b5bd 6204 62bd f2d5 7d3d
000000b0: c6ff b0bd b9cd a93d cb15 2d3d fd7a abbd
000000c0: c46c b3bd e8f9 64bd 365c 61bd 0f98 3d3d
000000d0: 912a 5dbd 8472 823d 6932 8d3d ae25 733d
000000e0: 5f07 e5bd 2fd1 b83d 9328 98bd cdea e53d
000000f0: 52f1 783d c878 e63d b706 723d ba1b 8e3d
00000100: c878 d0bd 35f6 c9bd 413e 793d b270 6c3d
00000110: 8fe3 3ebd 1866 a0bd 1159 423d 3d19 debc
00000120: 2b2a 88bd 87f0 bdbd 6be1 dbbd 363e 9bbd
00000130: 30a1 71bd 515f a7bd 2981 be3d 6468 05be
00000140: 148d d53d b13a ec3d fde7 b8bc 3e5f bb3d
00000150: 809b babd ae8d e4bd c611 5c3d affe b5bd
00000160: 07a8 3a3d 922e 963d b38f fdbc 281c 883d
00000170: c2c7 5cbd 3231 de3d ffc4 dc3d 19a6 663d
00000180: 1a17 5fbd a346 f73d 010d 00be 8347 fd3d
00000190: 7b86 debd d7fd 9e3d 2005 3c3d ace7 8ebd
000001a0: 631c 033d 31e9 eabd 5bb5 cfbd d839 01bd
000001b0: 7a00 21bd e968 60bd 0794 f2bd 46ab 96bd
000001c0: cf93 06be fbb7 b83d 52de e8bd 9d49 b6bd
000001d0: 196d d23d 3add c3bc fdc5 a3bd f715 8f3d
000001e0: 0c52 91bd ec74 8f3d 632d d23d 1cbe a53d
000001f0: bf0f 27bd 3db1 93bd 85d1 36bd 652e 48bd
