VVR-Workshops/autoencoder/autoencoder_gpu.pth (torch, 17277 bytes, 8 tensors)

encoder.0.weight f4 [64, 20]
00000000: e749 833e c443 133e 9401 2d3c eda2 34be
00000010: b946 833e e0af 423e eca2 a73c 2d7f 6e3e
00000020: c193 663e 5d20 63bd a105 273e 26df 9ebd
00000030: 303b 2fbd bd0f 69bc 561b 3cbe 3bb3 17be
00000040: 77e2 fc3d 2581 023e f0e3 a63d 2fa0 e439
00000050: e6ca a03d 1302 41be 9196 fabd 9203 893d
00000060: d1fe 85bd d061 c4bc ad97 65be a2e5 af3d
00000070: ff8f 4a3e 3e29 673d 1d82 50be ee9c 2e3d
00000080: b8a6 28bd 0dd1 4e3e 643c 133e cdc5 1e3e
00000090: 59fd 10bd 9051 1f3e ac65 61be 628d 6c3c
000000a0: 7ebf 2ebe b898 03bd 5aca a6bd 2795 adbd
000000b0: 7bc7 00be 4544 d23d 8127 3cbd 0295 0f3e
000000c0: 8908 39be b575 0e3e 13c6 f83d e85e 44bc
000000d0: 6bbd 933d 9a8b 2f3e 468c 0abb 1433 393d
000000e0: a4fa 0f3e 5638 693d a2ae 893d c01a e63d
000000f0: f729 ba3c a817 6b3c 6c5e b8bd 30e7 183e
00000100: 8350 45be eab1 b9bd b186 1f3e bf1b 13be
00000110: b769 413b bd6a 12be 5055 9fbd 22c5 05be
00000120: 0a8b 3b3d c9fd 2d3d d720 1dbe 3293 6dbe
00000130: bb4d d0bd da03 233e 5255 483e 115b 31be
00000140: 5516 f43d 5824 9f3d 4123 d4bd 7267 b3bd
00000150: 46f5 8b3c d6f7 2bbe 96ef ecbb 3f8c 6abe
00000160: 4bcb fc3c 5105 e93a bd58 a5bd a370 dbbc
00000170: 2b54 043c c895 c6bd 7c7b 4cbe e1a6 e63c
00000180: 441a 89bd 7d72 5bbe cfe8 093e e130 0f3d
00000190: a134 2abd 75f4 b8bd fa4b f53d b839 893d
000001a0: 15b7 4dbd bda3 02be c417 233e 4f34 16be
000001b0: 5ffb 773d 4e2c cdbd 0bc6 9dbb e1f8 643e
000001c0: 418e 94bd ef1a 433e 2d1d 0f3e cd89 4abe
000001d0: 946f 1abe 7982 733e bd4f 9e3d 85cb 3fbe
000001e0: 57b0 2d3e 5aa6 3bbd 9f60 673e 6c0e a83c
000001f0: 7bf3 11bc 9467 2ebe 6f3e 02be da0e e6bd
00000200: b790 473e 5948 303e b23a 9abd fefe 2abe
00000210: 4550 0b3e 6b42 403e e779 a13d e50a cb3d
00000220: 6da1 bdbd a837 39be 2f9b 1a3e 0416 08be
00000230: 76a0 32be 03f9 f3bd fc21 623c 60b7 a3bd
00000240: d7b9 19bd 0bc5 0b3e eae9 a83d fb28 3b3e
00000250: 8de3 a13d d1c2 7e3d aa74 f53d 906c e5bd
00000260: 869f 40be b93d d4bd c054 7e3c 2859 3abe
00000270: e23b 43be 63cf 4abc fde0 12be 1ca3 28bd
00000280: cc49 203e 00a2 9abd b556 493e 6c27 353e
00000290: 9a50 763d 6ba6 47be bfbf 9e3d 8e3f 4fbe
000002a0: 54d8 24bd 506c 723d da5a 433e 50ef 41be
000002b0: cf5c d7bc 2a15 d5bb f9ec e2bc e5af 183d
000002c0: 6f0d 50be 5a6c 283e cdc4 67be d1c6 7d3b
000002d0: f55d 55bd d1ee 373e 03f6 65be a170 f03c
000002e0: 6223 0bbe d7f7 243d ba87 29be 1636 b73d
000002f0: 27b7 043d cbb9 b43d 7b6e 35bd a482 433d
00000300: d757 0cbc 6b2c a03d 1e3d 3cbe 73fd 3bbe
00000310: 3f8e 8d3d 8e8b 0bbe 8403 3d3e ea1d a73d
00000320: 6c7c c0bd 1cfb 54bd 3826 523d 796c 22be
00000330: 706b e63c c6f1 15be 2f0d d9bd 4425 a3bd
00000340: 72db 3d3e abc2 36be b971 27be 434e 24be
00000350: b0b3 43bd d5aa 04be 545a a13d 6a6e 5abe
00000360: 18c4 063d f125 58be 4c5a 92bd a10b 21be
00000370: a6b3 683d 8181 4f3e 61e3 55be de77 e83d
00000380: a5b7 233e 6b6e 48bd 4695 2f3e 4c7f 653d
00000390: 514a ca3d 6500 c93d 4742 683e 4b16 18be
000003a0: 6ad9 2d3e a4b6 38be b451 d13d 4bd2 3f3c
000003b0: 4905 fabd 48b1 5c3c a099 58bd 2200 4ebe
000003c0: 462d 113e 77b4 143e 57e9 753e a013 ef3d
000003d0: 4932 1bbe 30f6 07be 0dab 503e 08d4 6b3e
000003e0: 290e d5bd 2b1d 7c3d 9b5e f0bd 663b e73d
000003f0: f93c 3cbd a092 17be 5242 8d3d 8027 1f3e
0.2564232 0.1438132 0.010559458 -0.17640276 0.25639895 0.19012403 0.02046343 0.23290701
0.22517301 -0.055450786 0.16310741 -0.07757406 -0.042781055 -0.014224944 -0.18369803 -0.14814465
0.12347882 0.12744577 0.081489444 0.00043606895 0.078512 -0.18848448 -0.122357495 0.06690134
-0.06542743 -0.023972422 -0.22421141 0.08588721 0.19781493 0.056435816 -0.20362134 0.04263013
-0.04117462 0.20196934 0.14378506 0.15505143 -0.03539786 0.15558457 -0.22011441 0.014438005
-0.17065236 -0.032128066 -0.08144064 -0.08475714 -0.12576096 0.10266928 -0.04593611 0.14021686
-0.18069662 0.13912089 0.12147155 -0.011985518 0.07213863 0.17143098 -0.0021140738 0.045214728
0.14060456 0.05693849 0.06722762 0.11235571 0.022725089 0.014348902 -0.090023845 0.14931941
-0.19268994 -0.090671375 0.15578724 -0.14366053 0.0029512474 -0.1429853 -0.07779944 -0.13063481
0.045786895 0.042478357 -0.15344559 -0.23200682 -0.10171076 0.15919438 0.19563797 -0.17319895
0.11918322 0.07770604 -0.10358287 -0.08759965 0.017084729 -0.1679376 -0.0072307093 -0.22905062
0.030858656 0.0017778074 -0.08073566 -0.026787108 0.008076708 -0.09696537 -0.1996898 0.028155746
-0.06694463 -0.21430393 0.13467716 0.034958724 -0.041554097 -0.090310015 0.11977382 0.06700462
-0.05022343 -0.12757774 0.15927035 -0.14668392 0.06054246 -0.10018216 -0.0048148683 0.22360565
-0.07253695 0.19053243 0.13975973 -0.1977913 -0.15081626 0.2378024 0.077300526 -0.1872998
0.169618 -0.045812942 0.22595452 0.02051469 -0.008908148 -0.170317 -0.12719129 -0.112333015
0.19488798 0.17215098 -0.075307265 -0.16698834 0.13604839 0.18775336 0.07884579 0.09914187
-0.09259305 -0.18087637 0.1509826 -0.13289648 -0.17444023 -0.119127296 0.013802048 -0.079939604
-0.037530746 0.13649385 0.082477406 0.18277352 0.0790473 0.06219751 0.119851425 -0.11202347
-0.18810853 -0.10363335 0.015523136 -0.18198073 -0.19065812 -0.012378546 -0.14343639 -0.04117118
0.15653151 -0.0755043 0.19661982 0.1769082 0.06013546 -0.19497077 0.077514164 -0.20239088
-0.04024537 0.059185326 0.19077626 -0.18938947 -0.026289372 -0.006502767 -0.027700888 0.03727712
-0.20317625 0.16447583 -0.22633667 0.003872324 -0.052091558 0.17962195 -0.22457127 0.02935058
-0.13587716 0.04027542 -0.16555682 0.08945863 0.03240123 0.088245 -0.044294816 0.04773201
-0.0085658645 0.07820972 -0.1838269 -0.18358402 0.06911897 -0.13627455 0.18458372 0.081600025
-0.093987316 -0.05199729 0.05130598 -0.15861692 0.028127402 -0.1464301 -0.10598218 -0.07966092
0.18540743 -0.17847697 -0.16351976 -0.1604548 -0.047778785 -0.12955792 0.07878557 -0.21331182
0.032901853 -0.21108223 -0.07146129 -0.15727092 0.05681195 0.20264246 -0.2088752 0.11350988
0.15988024 -0.048933428 0.17146787 0.056029603 0.09877456 0.098145284 0.22681533 -0.14852254
0.16977468 -0.18038422 0.10220662 0.011707853 -0.12208039 0.0134700015 -0.052880883 -0.20117238
0.14177427 0.14521967 0.24014793 0.11673665 -0.15155901 -0.13277507 0.2037775 0.23030102
-0.104030915 0.061551254 -0.117367946 0.11290626 -0.045956586 -0.14802027 0.06897415 0.15542412

encoder.0.bias f4 [64]
00000000: 39fe 3fbe 0eb3 6abe 9d23 88bd ac0b cebd
00000010: fa61 0d3d b0f8 12be 7ddb 333e 70fb 9b3b
00000020: f221 b43d 26d4 45bd c4e1 32be 0919 d6bd
00000030: 8228 d9bc b990 0cbe 32c1 bcbd 998c 39be
00000040: 6cad 363e 7725 fa3c 5f6b fabb 3de6 873d
00000050: 915a 5bbe 379a 603e d8e1 493d 4665 9fbd
00000060: 9811 0ebe 897f 09be 3030 1d3e fd45 b6bd
00000070: f73b 3e3e 6596 16be d7bc 423e 3042 45be
00000080: b16a c6bd 54f5 55be 5566 9abd 0de4 8c3d
00000090: 04d5 a13d 4d2c 3cbe 14ad a03c 86e9 d23d
000000a0: b0cd 463e c3e1 773e 5f93 023e 4e76 ffbb
000000b0: 0d52 3d3c 69a2 03be 31da 423e f562 463d
000000c0: 7421 313e 7ca6 25be 8eb4 55bd fb32 ca3c
000000d0: 01c0 47be 8ab5 943d 02ed 513e 0c8f 003e
000000e0: 9b77 b5bd 6971 f03d 8f44 26bd 25b3 53be
000000f0: 3176 5ebe 932d fd3d a24d 363e 575e 813e
-0.18749322 -0.22919866 -0.06647418 -0.1006082 0.034517266 -0.14352679 0.17564197 0.0047601983
0.08795537 -0.048298024 -0.17468935 -0.10453994 -0.026508573 -0.13727082 -0.092165366 -0.1812004
0.17839593 0.030535443 -0.007642194 0.06635711 -0.21421267 0.21933828 0.049287647 -0.07782988
-0.13873899 -0.13427557 0.15350413 -0.08900068 0.18577562 -0.14705808 0.19017349 -0.1926353
-0.096883185 -0.20894367 -0.075390495 0.06879435 0.07901958 -0.18376274 0.01961378 0.10298447
0.19414401 0.24207215 0.1275153 -0.0077960854 0.011555207 -0.12854923 0.19028546 0.048434217
0.17297918 -0.1617679 -0.052174143 0.024682513 -0.19506837 0.07261188 0.20500568 0.12554568
-0.088607036 0.11740381 -0.040592726 -0.20673807 -0.21724774 0.12362208 0.17803052 0.25267288

encoder.2.weight f4 [5, 64]
00000000: 61f6 99bd cd27 2d3d d67a 08be 98cf c83d
00000010: d292 833d 5393 4bbd 9582 9ebd ea66 4bbc
00000020: 429d 09bd cb37 803d f049 7ebd 500d 503c
00000030: e4e1 36bd efc2 bd3c 32e1 05bb 0e4b 0ebe
00000040: ba3c 09be 4446 f2bd 850e c53d a70e a73d
00000050: a687 a7bd 1998 0fbe 9bbd 9cbd 49b7 18be
00000060: 9877 bebc 22ec bdbd 35c8 ffbd 07f8 623d
00000070: 8142 11be 6252 2fbd e6ce b5bc 40ac de3c
00000080: 417d f23c e94f 483d 56a6 90bd 6eb5 0cbb
00000090: 876f 15be b947 b93d 8d1e 09bd 70b3 c4bd
000000a0: 1752 d6bc 5631 f43b 93a5 48bd 0e89 bdbd
000000b0: 2b64 be3d e299 d43c 767a 53bd a67e 2c3d
000000c0: 1e90 91bc 8ca6 963d 32a7 e1bd 791b a53c
000000d0: c95d 6cbd 0bd0 0abd f83c c0bd b54f 26bd
000000e0: 6ad2 fbbd 1bc3 f7bd 9b18 a2bd 0530 3f3b
000000f0: 78f1 c0bd 33f0 93bd 44dd c1bd 912e 14be
00000100: 3e2a 12bd d1fb eabd b8e4 c6bc 21a6 9a3c
00000110: 9d9d ce3d f518 c8bd 9803 ab3d 9722 b2bd
00000120: 2146 713d ca76 883d c429 2d3d 90a5 e6bd
00000130: 7d78 d1bc 7fc3 a83d 8419 b03d da19 b23d
00000140: 58cf 333d 4b13 273d de95 c2bc 172d 72bd
00000150: 361b f13c 72e0 34bd 7282 183d 8df2 543d
00000160: c95c b93d 80b3 d93c 4754 923d 735c 313d
00000170: a741 e33c 1932 91bd 77d5 4c3d 4b66 b3bc
00000180: 7915 a63d 495a e6bb 0b94 463c 33a5 aa3c
00000190: e278 c4bd a6ff a33c 6494 a63d 8cac 923d
000001a0: 1687 89bd 808d bcbd 8a81 2f3d 1d7d bdbb
000001b0: 3beb ae3d bae6 21bc 2ee3 d53d d8cb 39bd
000001c0: 21ff b13c bb9b 553d 0e42 8cbc ccdf d63c
000001d0: ba9d 203d 0de4 3d3c a230 263d 1200 c2bd
000001e0: 4c16 bebd 9af1 b13d 088a 983d 681c 59bd
000001f0: 703c e2bc 1a5a 0cbe ef5e 1bbe d4b9 f13c
00000200: 2073 cbbd 4027 c0bd 1113 e63d 577f bc3d
00000210: e550 f6bc a71f b43d 0b18 563d 98f5 f7bd
00000220: fba4 b93d 25e4 82bd c4a6 883d 37de aa3d
00000230: 7a8a 3abd 8ca8 c63d 0620 85bd f93a 69bd
00000240: 5e78 0f3d b831 943d 2c5e 63bd f0fd 743c
00000250: 5ddc 933c 6b95 c7bd 9bf7 99bd 7f1e ccbd
00000260: 0ea2 ac3d 2c5c 033e 2020 853d b07d c5bd
00000270: 6895 e43d b232 74bc 598c ce3d 384b 19bd
00000280: 683f 443d b8e7 e2bc d988 bc3a 811f d5bc
00000290: 8b0f 7a3b bcdd 9d3d 531f 6cbd a77d a03c
000002a0: b6e6 e43b d823 8b3d aadb c1bd 028c 85bc
000002b0: 5844 2abd a98e 4ebc 5399 e43d e122 94bd
000002c0: b497 9bbb fe17 d73c 59b9 84bd 7e52 b1bd
000002d0: 498b 873d 2878 333d 0c6f 0fbd 8edc 9abd
000002e0: 0732 783d 3147 923d 132a 78bd f6cf 24bd
000002f0: 7c8a c1bd 1a17 0abd bfa9 0a3e 97a4 903d
00000300: b73f 8a3d 3254 3ebd f1a1 ef3d 4ff0 90bd
00000310: 484a b9bd 3be4 1d3d 6926 603d 3d11 6b3d
00000320: ed63 8c3c 3c5c e7bb 6c3a 11bd 7d83 253d
00000330: d6ad 703b fbda 473d f1b3 123d b774 be3c
00000340: d463 ab3c 0bbb b23d 02cb 153d fde3 153e
00000350: cb3c 44bd 26be 123e ffd6 c23c 15cf 5b3d
00000360: df04 2d3c a1aa fd3c 2218 ae3d ca0d 5c3c
00000370: 0fe1 39bd b217 0f3e cfb1 763d 3050 a9bc
00000380: c268 b7bd f8cb 81bd 870f 213e f790 18bc
00000390: c8ce 70bd 349c 113e ef6f a03d 98e4 243d
000003a0: 32ed 8abd e6e9 a83d 78d5 233d e284 a43d
000003b0: 9b81 cf3d 263d 1e3e 7eba 9ebc fabb 2abc
000003c0: bbba 73bd 728e 463d be7a 95bd 1fda 7d3d
000003d0: 500b e43c 7cd9 153e 76b3 223e d044 973d
000003e0: 1fa1 423d 229c 88bd 8074 11bd 34d9 133d
000003f0: 5c4e 6fbd 0912 f93c adc4 1cbd a6c9 833d
-0.07517696 0.042274285 -0.13328108 0.0980522 0.06424488 -0.049701046 -0.0773975 -0.012414673
-0.03359724 0.06260642 -0.06208223 0.012698486 -0.04464902 0.02316424 -0.0020428416 -0.13895819
-0.13402072 -0.11829808 0.0962191 0.081570916 -0.0818017 -0.14022864 -0.07653352 -0.14913668
-0.023250386 -0.092735544 -0.12489358 0.05541232 -0.14185525 -0.042803176 -0.022193383 0.027181745
0.029600741 0.048904333 -0.07062976 -0.0021470445 -0.14593326 0.09046883 -0.0334764 -0.096045375
-0.02616219 0.0074521704 -0.04898603 -0.09254657 0.09296449 0.025952283 -0.05163046 0.04211297
-0.017768916 0.07355985 -0.11018218 0.020154702 -0.057706628 -0.03388981 -0.09386629 -0.04060336
-0.12295993 -0.1209776 -0.07914849 0.002917291 -0.094210565 -0.07223549 -0.09466031 -0.14470889
-0.035684817 -0.114738114 -0.024278983 0.018878045 0.10088656 -0.09770385 0.08350295 -0.08698004
0.05890477 0.06663282 0.04227616 -0.11262047 -0.025570149 0.08240413 0.08598617 0.08696337
0.04389891 0.040789884 -0.023753103 -0.059125032 0.02943192 -0.04415936 0.037233777 0.051989127
0.090509005 0.02657485 0.07144981 0.043301057 0.027741266 -0.070896335 0.050008263 -0.021899363
0.08109564 -0.007029806 0.012120257 0.020830726 -0.09593369 0.020019364 0.08133772 0.07161817
-0.06715219 -0.092066765 0.042848147 -0.005782737 0.085409604 -0.00988167 0.10443722 -0.045360416
0.0217281 0.05215047 -0.017121341 0.026229762 0.03921292 0.011590016 0.040573724 -0.0947267
-0.092815965 0.0868866 0.07448202 -0.053005606 -0.02761671 -0.13706246 -0.15172933 0.029507555
-0.09934068 -0.09382486 0.112341054 0.09203976 -0.03006787 0.087951 0.052269023 -0.1210739
0.09064671 -0.06391171 0.06672433 0.08343165 -0.045542218 0.097001165 -0.065002486 -0.056941006
0.0350269 0.072360456 -0.05550973 0.014953122 0.018049413 -0.09745296 -0.0751793 -0.09966754
0.08429347 0.1282813 0.06500268 -0.096431136 0.111613095 -0.014904665 0.10085363 -0.03742525
0.04791203 -0.027698383 0.0014384045 -0.026015999 0.0038156237 0.07708308 -0.05764706 0.019591166
0.0069855107 0.06793946 -0.09465726 -0.016302112 -0.041569084 -0.012607255 0.11162057 -0.07233215
-0.004748309 0.026256558 -0.06480665 -0.08658312 0.066183634 0.04381576 -0.035018012 -0.07561599
0.060594585 0.07142485 -0.060587 -0.04023739 -0.09450242 -0.033713438 0.13541315 0.07062643
0.06750434 -0.046467014 0.1170081 -0.07077085 -0.09047371 0.038547736 0.05472413 0.057389487
0.017137492 -0.0070605557 -0.035456106 0.0404086 0.0036724708 0.04879282 0.035816137 0.023249013
0.020921625 0.08727082 0.036570556 0.14637752 -0.04790954 0.14330348 0.023784159 0.053664286
0.010560243 0.030965151 0.08500697 0.013431022 -0.04538065 0.13973883 0.060228165 -0.02066812
-0.08955528 -0.06337732 0.1572858 -0.009311906 -0.058790952 0.14219743 0.0783385 0.040257066
-0.06783523 0.082477376 0.0399985 0.08033158 0.10132142 0.15453014 -0.019376036 -0.010420794
-0.059504252 0.04847569 -0.07298802 0.061975595 0.027837425 0.14633745 0.15888771 0.07386172
0.04751694 -0.06670405 -0.035511494 0.036095813 -0.05842434 0.030404108 -0.038273502 0.06434946

encoder.2.bias f4 [5]
00000000: 56ea b5bc a84b 0abe 5598 1b3d 324f 173d
00000010: b991 38bd
-0.022206467 -0.13505423 0.037987072 0.03694076 -0.045060847

decoder.0.weight f4 [64, 5]
00000000: 80b5 ec3d 3c06 293d e524 933d 99ee b63e
00000010: 3804 e63d b077 a03e 125c afbe 54b9 bfbe
00000020: da66 843e 8cd4 d3be d673 393e 45c8 a13e
00000030: 439c 67be 4e5a 813e cc5d b83e 33d2 0b3e
00000040: 6d3a bfbe e063 8a3c 3d22 d73d 6baa 30be
00000050: 5ed9 f5bd 3042 523e d1e9 9c3e eda8 f83d
00000060: 1ad7 4cbe ec51 1f3e 8007 37bb 7e72 973e
00000070: 6bc3 4ebe 2cc3 883e 043c f6be a5fb 9e3e
00000080: 3130 12be c791 1ebe b78c 93be 0438 a8be
00000090: f4ce ac3e 4319 f0be 8ae7 963d 41a0 af3d
000000a0: ffeb 8abe 77b5 1a3d f7b0 c83e 7108 413e
000000b0: 2f08 efbc ecea 7a3e 5650 e8be 4301 3fbe
000000c0: c719 d93c 21de 70bd 1c5a 93be 150f 91bd
000000d0: c043 c83e b997 20be 2c8e 8f3e f99f afbe
000000e0: 1dc4 8d3e 62e7 e7be 6b05 82b9 1192 bbbd
000000f0: 03b2 ee3d 052e 7f3d 61e2 0fbe e598 ad3e
00000100: 64e8 8c3e 5a0a 013e 3456 87be 4ad7 00be
00000110: dba7 643e 5bad 90be 88fd a13e b137 9d3e
00000120: 6a29 ad3e ee6c 67bd 3b5e 1d3d a925 fbbe
00000130: 175c 163c c178 923e 9398 a6be 38a1 b03d
00000140: 2e6a a3be 8538 bf3e ae26 c2bc 4a58 8abe
00000150: 8533 14be f764 cabd 8ffd 60be ac58 663e
00000160: 1053 543e 9327 c4be 9daa b3be 8213 b5be
00000170: 3515 e93e a98c 883e 251a 0c3e 881b 653d
00000180: bb84 bdbd a8f6 42be 5535 e13e 682b d43e
00000190: 367c ea3d 4d49 873e 26a0 7c3e 0953 8f3e
000001a0: fb14 58be c0ec 0f3e cbe0 aa3e 6252 af3d
000001b0: 7885 aebe cd1b 0fbd be12 1cbe e104 4d3e
000001c0: 08e4 80be a657 823e 62f4 c1be 2c12 50be
000001d0: 2c29 8dbe 763e bd3e 6f59 83be 172f b53e
000001e0: d33d b4bc 60bb d53e 4dca 8e3e 9677 76be
000001f0: e4b6 233e f1d8 d2be 72c2 d6bd a617 63bd
00000200: 005a dabc 5ca9 d3be 866e a23e c44d 78be
00000210: 1a89 80be f899 b0bd 4c81 873e c499 b9bd
00000220: 49ae aebe 2a53 a13e 1824 b5be a038 173e
00000230: a1de bcbc b56d a33e 68f3 86bd a708 bb3e
00000240: c687 2ebe 5d6f 88be 2f26 113a 3935 7b3e
00000250: 92b4 033e e836 673d ca02 e7be 4bd9 463e
00000260: 1b80 77be e0f2 733e a36c eb3d 3485 83bd
00000270: de3f 9fbe 6c84 83bd 6863 243e f467 c23e
00000280: a383 b93e d87e 0f3e 17f0 a9be 0daa 77bd
00000290: 7111 aa3e cffe d8bb f838 55be f2d1 17be
000002a0: 01b6 d43e 7c33 b7bd df2c d2be efac 81be
000002b0: 848b b4be 8713 97bd 2444 efbe 3893 103e
000002c0: 3086 0ebe 3c5a 62be 6dc4 8abe e23f a43e
000002d0: 3e9d 493d d2d7 b73e 14a6 c63e cc4d d23e
000002e0: 315e 24be 2e2c 0e3e d383 823e 7bf2 e9bd
000002f0: dc76 d63e 85e2 89bd f1d8 7cbe f986 82bd
00000300: 8e67 debd 9c6d 9dbe 7791 cdbe 230c 57be
00000310: 85b4 2bbe 60be e1bd 3737 243e 87dd ae3e
00000320: 9856 adbe 3394 5c3e ebc6 c7be 0361 0d3e
00000330: bd5e a5bd 7483 c13e c635 90be 9846 d83d
00000340: c09e 943d a805 093e e2f4 ca3e 30e6 2c3e
00000350: 4f04 b6be a869 90be ed34 ff3c c6b5 a43e
00000360: d463 0cbe 6ccd 85bd f949 aebe 2f33 c2be
00000370: 8823 c23d fc5a 463e a8a5 023d 684b 3ebe
00000380: 82da df3e 9899 77be 6823 bf3d f28a 9ebe
00000390: d6c0 d3be 0021 313b e8b5 dc3d b43d 37be
000003a0: c8d9 4ebd 78e7 9bbd b6ae 873e a84b d33d
000003b0: 972b 9cbe fcbf b03e 2f7d a6bc 2e1b 81be
000003c0: ae99 c5bd 0f9e e7be 1d03 8e3e 7cc7 823d
000003d0: fbae c5be 2106 63be 6125 2b3e 8d98 9abe
000003e0: 125b 88be b8cd 35be 34be abbd fe95 2abe
000003f0: 4378 3b3e fdd7 803e f8b2 e1be 58d9 563e
0.11558056 0.04126571 0.071847714 0.3572891 0.112312734 0.31341314 -0.34249932 -0.37446082
0.2585972 -0.41373098 0.18110594 0.31598106 -0.22618203 0.2526421 0.3600906 0.13654403
-0.37349263 0.016893327 0.10504577 -0.1725251 -0.1200435 0.20533061 0.30647138 0.12141595
-0.2000393 0.15558594 -0.0027928054 0.29579538 -0.20191734 0.26711404 -0.48092663 0.31051365
-0.14276196 -0.15485297 -0.28818294 -0.32855237 0.33751643 -0.46894273 0.07368381 0.08575488
-0.27133176 0.037770715 0.39197513 0.18850876 -0.029178707 0.24503678 -0.4537379 -0.18652825
0.02650155 -0.05880559 -0.28779685 -0.07082955 0.3911419 -0.15682878 0.28038156 -0.34301737
0.27688685 -0.4529372 -0.0002479957 -0.09158719 0.11655047 0.062299747 -0.140512 0.33905712
0.2752105 0.12601605 -0.26432955 -0.12582126 0.22329657 -0.2825726 0.31638741 0.30706552
0.3382066 -0.056500368 0.038419943 -0.4905217 0.009177229 0.28607753 -0.3253828 0.086245
-0.31916946 0.37347808 -0.023700085 -0.27020484 -0.14472778 -0.09882539 -0.21971725 0.22494763
0.20734811 -0.38311443 -0.35091105 -0.35366446 0.45523992 0.26669815 0.13681848 0.05593446
-0.09253832 -0.19039404 0.43986002 0.41439366 0.114494726 0.26423112 0.24670467 0.27993038
-0.21101753 0.14055157 0.33374628 0.08560635 -0.34086204 -0.034938622 -0.15241525 0.20021392
-0.25173974 0.25457495 -0.37881762 -0.20319432 -0.27570474 0.36961716 -0.2565417 0.3538749
-0.022002136 0.41744518 0.27888718 -0.24069056 0.15987736 -0.41181138 -0.10486306 -0.055442475
-0.026654243 -0.41340148 0.31724948 -0.24248415 -0.251046 -0.08623117 0.26465833 -0.090625316
-0.34117344 0.31508762 -0.353791 0.14767694 -0.023055376 0.31919637 -0.06589395 0.3653004
-0.17043981 -0.26647463 0.0005537001 0.24532022 0.12861851 0.056448847 -0.45119315 0.19418828
-0.24169962 0.23823118 0.1149533 -0.06421891 -0.31103414 -0.06421742 0.16053545 0.37969935
0.36233243 0.14013231 -0.33190987 -0.060464907 0.33216432 -0.0066221724 -0.20822513 -0.14826182
0.41545108 -0.08945367 -0.4104986 -0.2532725 -0.35262692 -0.073767714 -0.46731675 0.1411866
-0.13918376 -0.22104734 -0.27102986 0.3207999 0.049222223 0.35906845 0.38798583 0.4107498
-0.16051556 0.1388404 0.254912 -0.114232026 0.41887558 -0.06732658 -0.24692132 -0.063734
-0.10859595 -0.30747688 -0.40150043 -0.21000724 -0.16768081 -0.11022639 0.16036688 0.34153387
-0.33855128 0.21540909 -0.3901895 0.13806538 -0.080747105 0.37795603 -0.28166026 0.1056034
0.07256842 0.13381064 0.39639956 0.16884685 -0.35550162 -0.2820561 0.031153167 0.32169932
-0.13709956 -0.06533322 -0.34040812 -0.37929675 0.09479433 0.19370645 0.031896263 -0.18583453
0.43721396 -0.24179685 0.09332925 -0.30965382 -0.4135806 0.0027027726 0.10776883 -0.17894632
-0.05050066 -0.076125085 0.2650048 0.10317165 -0.30502006 0.34521472 -0.020323364 -0.2521605
-0.09648453 -0.45237777 0.2773675 0.06385705 -0.38610062 -0.22170307 0.16713478 -0.30194512
-0.2663198 -0.17754257 -0.08385888 -0.1665878 0.18307595 0.25164786 -0.44081855 0.20981348

decoder.0.bias f4 [64]
00000000: dbba 82be 6a16 e3be d542 ff3d 42eb 21be
00000010: 1f5c cebe 2a76 99be adfa f1bd 26a7 f63c
00000020: 2136 e73d 713a 8d3d 0a2a 8bbe 6afb 80be
00000030: f7e2 a83e 22c1 8bbe cc32 353e 9cd3 553d
00000040: f4cc 7f3b dd32 d3be 0a60 a03e a8fa 833e
00000050: 0a44 353e f1ab 37bc 57f2 db3d 5bd3 66bd
00000060: de70 443e ab10 4d3e 009a 61ba 0098 66bc
00000070: 133c ec3e 7197 353e 6275 423d fa6a bfbe
00000080: 782c 013e 8503 a6bc 87b6 3cbe f620 51be
00000090: df93 963c acc5 bfba e5c9 59be be29 66be
000000a0: 5979 33be 5a8c 9abe f986 d53d b370 cf3d
000000b0: e856 16be d029 a8be c75d e3be 4f80 e13e
000000c0: 0239 d4be 7934 3bbe 00f4 11bc 4618 85be
000000d0: 7bf7 3a3c 6166 823e fe1a 92bd 9948 b4be
000000e0: afc2 5e3e 99eb ccbd 271b ae3e 8ad3 2e3e
000000f0: ab28 a7bd b974 1c3e 0ce6 ac3d b768 d6be
-0.25533184 -0.44353038 0.12463919 -0.158124 -0.40304658 -0.29972965 -0.11815391 0.030109
0.11289621 0.068959124 -0.2718051 -0.25191814 0.3298566 -0.27295786 0.17695159 0.05220376
0.0039032074 -0.41249743 0.31323272 0.25777173 0.17701736 -0.011210428 0.10739582 -0.056353908
0.1918368 0.2002589 -0.00086060166 -0.014074326 0.46139583 0.17733552 0.047475226 -0.37386304
0.1261462 -0.02026535 -0.18429004 -0.2042273 0.018381057 -0.0014631054 -0.21268423 -0.22476861
-0.17526759 -0.30185205 0.104261346 0.101289175 -0.1468159 -0.328444 -0.44407484 0.44043204
-0.41449744 -0.18281735 -0.008908272 -0.25995082 0.011411543 0.25468734 -0.071340546 -0.35211638
0.21753953 -0.10005874 0.3400509 0.17072883 -0.08162054 0.15278901 0.084423155 -0.41876766

decoder.2.weight f4 [20, 64]
00000000: 67ba 823d 82e0 a9bd fd91 91bd 04e7 3d3c
00000010: 0007 a53d 4296 afbd 5c72 cabc 67d8 993d
00000020: 51da 063e e3b6 bf3d 47ce 343d 5e18 503d
00000030: 5788 3b3d b393 4e3c 5dd2 77bd 5080 d23d
00000040: ac09 01bd ccf6 9f3d 0f36 953d 701f 423d
00000050: 59f2 c83d cc3a e7bd f2d1 c83d 4926 7e3d
00000060: fc5a 22bc d913 c1bd 2854 3abd 005e 273d
00000070: 189f 263c 11ce 0b3e 7c19 26bc 3ae6 f9bd
00000080: cb06 b23d 66ed 003d 2e3b e23d ec45 c53d
00000090: 075f ea3d 6cd6 0a3e 3b9c 0e3e 18eb b9bc
000000a0: 2f99 3ebd 008a cc3b eb86 2dbd 35d4 0c3e
000000b0: fcf9 433d 684d 2fbd 8e63 d93d d608 bfbb
000000c0: d822 8dbd beb2 073d 9fa6 543d 3c96 4bbd
000000d0: 3d8f 97bd 5307 fb3b fb75 823d 8cf7 7c3d
000000e0: bc8e 93bd 124f 063e 72eb 95bd b5d8 163c
000000f0: c466 cb3d 71b7 c33d 0bd1 c1bb a25b a83d
00000100: 9807 cdbd 7063 453c 5659 823d f39c 7fbd
00000110: 6539 993c e0d5 13bd af8b 2d3e 01c4 df38
00000120: a75c 41bc 84cf 7b3b 7d84 3d3d 597a 8ebd
00000130: 7726 8f3d 928d 6f3a acf6 c0bd 308a 5ebc
00000140: 4495 02bd 2936 a53d d329 a63d 6c5a 4bbd
00000150: e418 1a3e c71d 5e3d a56d 92bd a944 873d
00000160: 40a4 033e 310b afbc c8aa bd3d 9067 2ebd
00000170: dcba 073d 0da9 26bd ade3 f23d c03e 2ebc
00000180: e6f0 c7bd afc6 eb3d 578f ad3d 98ee 2cbd
00000190: b459 8bbd 8d0c 793c 90f8 cd3d d1ef c0bc
000001a0: 5200 063d c00b 65bc 739b 6ebd dbf6 77bd
000001b0: 28d5 94bc e02d e9bc 2073 bdbb 47ea 9cbd
000001c0: 2ac1 913d 75fe cabd 7665 7d3d 6c31 dfbd
000001d0: 35a2 9abc c0eb 943d 494a 803d b254 ebbd
000001e0: f906 0c3d 5b50 80bd 4908 193e af20 023e
000001f0: a26d 90bc ace3 90bc bff1 313e 92a2 333d
00000200: 57ff 963c 60f9 64bc 7444 1ebd 1d2d 1dbd
00000210: 0d6a 563d ec9b babd 754e 593a ee32 583d
00000220: 9b9a 47bd e853 5e3d 856a 883c 2334 dbbc
00000230: 498f 91bd b1dc 983d 1e1c abbc 37b5 4e3d
00000240: b663 1a3e cca1 fa3d da42 f93d 8338 2e3d
00000250: 3ecb 8a3d 2988 15bc 6eb7 4fbd ac14 56bc
00000260: 7c78 a03d 6de8 8bbd 8674 b83d c63d c3bd
00000270: cb7d c6bc df34 e73c 9852 263e 0498 623d
00000280: 2a27 cfbb 6374 083d 2ee3 86bd e4c9 4a3d
00000290: 2d7c cf3c 000e 923d 8af7 e03c 4a46 0dbd
000002a0: 625c 2e3e 8a1e 953d d973 afbd 1c3e cbbd
000002b0: 2e9f c0bd c01b 9a3d 5a2f d8bd 6742 8b3d
000002c0: 7a82 1bbd 2f4b 8bbd 073d c13d d467 91bd
000002d0: e050 42bd 78bc 16bd 0986 b33c dcc6 39bd
000002e0: 53b0 6abd aef1 5abd 7dad bebb 4082 7cbc
000002f0: 20a2 86bd 1873 443d 197f 0b3e 5b1b 453c
00000300: b4eb c3bd c025 c73b 58d0 0e3e 9040 fc3c
00000310: 65d7 a8bd a04a d43d ccdb 2bbc d112 b6ba
00000320: f13c b5bd 42a1 d03d b8a2 bcbd 9641 8a3d
00000330: a79c e93d 793e 0bbc af8f 993d 0651 75bb
00000340: 0085 063a 3e9d 843d 61f0 7ebc e6dc d93d
00000350: 20ed 203d 4be5 afbd e0d9 9a3d 7da5 36bd
00000360: cb35 bebc 80c0 053e 20e4 d5bc b88b 993c
00000370: 5c57 38bc 57b7 1a3e b71b e83c 0093 67bb
00000380: 0b78 88bd 7059 913c 4450 b03b e4c0 70bd
00000390: 8afb 063e 0c4a 253d 879c 073d 71d1 b4bc
000003a0: bab9 a73d 984f cbbd a48c ce3d f963 853c
000003b0: bc21 ccbd a6c4 cdbd 602b d9bc b79a 8bbd
000003c0: 5c3a 403d b4aa d0bd 1b25 86bd dc76 5c3d
000003d0: 8919 513d 6515 9c3d 9159 a03d 9471 5dbd
000003e0: f050 87bd b0dd 053e cedb b53d 6a63 bcbd
000003f0: ca19 ee3d 5848 863c d919 30bd 5a25 553d
0.0638321 -0.082947746 -0.07107923 0.011590723 0.08057976 -0.08573581 -0.024712734 0.075119786
0.13169219 0.09361055 0.044142034 0.05080449 0.04578432 0.012608456 -0.060503352 0.1027838
-0.031503364 0.07810745 0.072857015 0.047393262 0.09811849 -0.112905115 0.09805669 0.06204823
-0.009909388 -0.09427614 -0.045490414 0.04086113 0.010169767 0.13652827 -0.010137912 -0.12202115
0.08692702 0.0314764 0.11046444 0.09632477 0.11443906 0.13558358 0.13926785 -0.02269511
-0.046532806 0.006242037 -0.042364996 0.13752826 0.047845826 -0.04279843 0.10614692 -0.0058299107
-0.068914115 0.033129446 0.051916715 -0.04970382 -0.074003674 0.007660785 0.06370159 0.061759517
-0.07204959 0.131161 -0.07320298 0.00920694 0.0993171 0.09556473 -0.0059148124 0.082206026
-0.10011214 0.0120476335 0.06364696 -0.062405538 0.018704126 -0.03609264 0.16947816 0.00010669977
-0.011801875 0.003842325 0.04626893 -0.0695693 0.069897585 0.0009138222 -0.09422049 -0.013582751
-0.031880632 0.08066971 0.08113446 -0.04964678 0.15048558 0.054227617 -0.07149819 0.06604893
0.12855625 -0.021367641 0.092610896 -0.042579234 0.033137187 -0.040688563 0.11859832 -0.010635078
-0.097627446 0.11512505 0.084746055 -0.04221973 -0.06804219 0.015200746 0.10057175 -0.023551853
0.03271515 -0.013979852 -0.058253717 -0.060538154 -0.018168047 -0.028464258 -0.0057815462 -0.07661872
0.07116921 -0.09911815 0.06186434 -0.10898098 -0.018876174 0.07271528 0.06264169 -0.11490764
0.034186337 -0.062653266 0.14944567 0.1270778 -0.017630402 -0.017686687 0.17377375 0.04385621
0.018432302 -0.013975471 -0.0386395 -0.0383731 0.05234723 -0.09111771 0.0008289584 0.052782945
-0.048731428 0.054279238 0.016652355 -0.02675826 -0.071074076 0.074639685 -0.02088743 0.05046579
0.15077099 0.122378916 0.12170954 0.042534363 0.067770466 -0.009126701 -0.05071204 -0.013066452
0.078354806 -0.06831441 0.090066 -0.09533267 -0.024229905 0.028223453 0.16242445 0.055320755
-0.0063218074 0.03331412 -0.065863 0.049508944 0.025327766 0.071315765 0.027461786 -0.03449086
0.17027429 0.072812155 -0.08567018 -0.09923956 -0.09405361 0.07524824 -0.105559066 0.067997746
-0.03796623 -0.068014495 0.09435468 -0.07099882 -0.04744041 -0.03680083 0.021914499 -0.045355663
-0.057297062 -0.05345314 -0.0058190213 -0.015411913 -0.06573892 0.047961324 0.13622703 0.012030448
-0.09566441 0.006077498 0.13946664 0.030792505 -0.08244208 0.10365796 -0.010489415 -0.0013891106
-0.08849514 0.101870075 -0.09210724 0.06750791 0.11406832 -0.008498781 0.074981086 -0.0037432327
0.0005131513 0.06475304 -0.0155602405 0.10637836 0.03928864 -0.08588656 0.075610876 -0.044591416
-0.02321901 0.13061714 -0.026109755 0.01874338 -0.011251297 0.15109001 0.028333528 -0.0035335422
-0.066635214 0.017742842 0.005380662 -0.058777705 0.13181892 0.04035382 0.03310826 -0.022072526
0.081897214 -0.09927291 0.10085419 0.016283022 -0.09967372 -0.10047273 -0.02650994 -0.06816619
0.046930656 -0.10188809 -0.06550046 0.05382429 0.051049743 0.07621268 0.078295834 -0.054063395
-0.066072345 0.13072848 0.08879815 -0.09198649 0.116260126 0.016391918 -0.0429934 0.052037574

decoder.2.bias f4 [20]
00000000: f242 0a3d 517e bb3d 5a4f 043e b277 9d3d
00000010: 5a8a 7c3c 7f63 033e 1ee0 79bd a852 7abc
00000020: 872c d53d 5884 8bbd cdad c73c 4f0a c23d
00000030: 259c b8bd b3ae 053e de47 fd3d a384 193e
00000040: 5916 da3d 62d5 81bd 0841 4dbd d455 5c3d
0.03375525 0.09154952 0.12920895 0.07688846 0.015413845 0.12830923 -0.06100475 -0.015278496
0.104088835 -0.06812352 0.024374867 0.094746225 -0.09014157 0.13054924 0.12367223 0.14992003
0.10648794 -0.06339528 -0.050110847 0.05379279
