VVR-Workshops/SequentialData/lstm_wind_excel.pth (torch, 127017 bytes, 9 tensors)

lstm.weight_ih_l0 f4 [200, 1]
00000000: 6f3c da3c 968e c6bc 3686 5e3e 9c54 8ebc
00000010: 0ee2 5c3e 2ab7 d0bc e175 62bd e204 2fbe
00000020: f2dc 923b 3240 3bbd 2f1d 593d b440 a43d
00000030: 0286 be3c f1c0 f1bd 1e60 263c a94e d93d
00000040: eff2 f4bd a8f0 72be 6933 66bc 55f8 53bd
00000050: 1763 fdbd be17 9a3e f2df f63d 8226 e9bc
00000060: 487a afbd 7eb0 2e3e b1ec 6e3e bc63 b93e
00000070: 3352 2ebe f7de 72bc c310 23be 283c 253e
00000080: 845f 613e 096a 1dbd 403b ce3d 2f77 4b3e
00000090: 43d0 68bd 745e 483e de78 443a b4c4 a8bd
000000a0: 3ba1 7bbd 7d8d b0bc 3a8f b5bd 077c 813d
000000b0: c058 3cbe cef1 a5bd d39d 453d ea84 dc3d
000000c0: b8a0 01be e920 11be b9a7 51be 41d4 133d
000000d0: 9c3c 003d d56b b3bc 6c98 483e c982 083c
000000e0: 8b44 04be 28d3 19be 9402 823d e05c 3b3e
000000f0: 66ce 823e 4214 443d 7019 5a3d 13a0 183b
00000100: a7fd 90be 9cc6 623e 2af1 13be a9f0 8cbd
00000110: 4fb1 773e 56fd 82be dde2 013d 35f8 0dbe
00000120: 2cbf 993d 75cc c0bd 79e5 45be 055a 183e
00000130: b562 fa3b 0f9b f53d cf4a 67be 685c 343e
00000140: 3850 78bc 746b 74be 4ae1 893e 954f 8d3b
00000150: 93d4 803d 5f2b b7bc 6155 4bbe 73f2 b0bc
00000160: d155 493e afe0 473e 2edb 05be 08b0 443e
00000170: f692 5dbe ab5c 59be 975c 97be 55e1 a93d
00000180: 931b bc3d 5bec c63d 1e6d 94be b77b 82be
00000190: d53a 9fbe 15e2 5d3e 3fa7 843e a036 e5bd
000001a0: cc12 8a3e 2781 1bbe 3e02 01be e1b7 3ebe
000001b0: adda 223e 329d 89be 8d69 5e3e 053a fd3d
000001c0: 6f4d 673e aad4 083d d57b 363e ff98 8cbe
000001d0: 91f7 82be eaa5 893e bcad 293e c1fe 7a3e
000001e0: ed6e 35be a417 a9be 8ff7 84be c918 06be
000001f0: 3b40 9bbe 2cc9 56be e267 3fbe 4170 8fbe
00000200: 908c ecbd df8f 5a3e 41ed bc3d 1471 8a3e
00000210: 54f6 253e 95f4 373e 335d 693e 2bf2 4b3e
00000220: bd4e 05be 63ef 32be 4d60 253e d442 1bbc
00000230: 95e6 37be bc45 783e d62e 353e 3158 b6bd
00000240: b62d 2a3e 48a9 8abe 0ab4 35be ca50 61be
00000250: d728 a9be 6305 85be e565 75be 6d53 59be
00000260: 3563 d33d 234d 2dbe 8515 503e 2a92 52bd
00000270: ca33 d0bd 92f0 3bbe 65c3 86bc 8cfb 2b3e
00000280: 687f 933e c767 aa3d 6667 113d db4a d4bd
00000290: e0fa 81be 9c53 a13e e6bf 8dbe d2ea 75be
000002a0: 5fb9 be3d b79b 2ebe 1a9e eebd 1f35 563d
000002b0: 08ee af3d 080e 19be 67f4 c3bd 2080 723e
000002c0: 54f4 293e 96d1 ba3e 5c0c c2be 67a3 6f3e
000002d0: a8d7 8abd 450d 353e 8272 0f3e 2cf9 52bd
000002e0: ad47 c23d 45d4 683e 2aa0 52be 53a6 d83d
000002f0: 914b 8a3d c614 6cbd 198e 99bb 27c1 863d
00000300: 83a6 c9bd 6eb6 8cbe be6f e2bd 69d5 c4bd
00000310: 51da a53d 7ed4 bf3b f5e9 51be e020 e9bd
0.026640145 -0.024237912 0.21730885 -0.01737433 0.21570608 -0.025477964 -0.0552882 -0.17091706
0.004481905 -0.04571552 0.053006347 0.08020154 0.02325726 -0.11804379 0.010154752 0.10610706
-0.119603984 -0.23724616 -0.014050343 -0.0517505 -0.123724155 0.3009624 0.12054433 -0.028460745
-0.08568245 0.17059514 0.23332478 0.36208904 -0.17023544 -0.014823667 -0.15924363 0.16136229
0.22009093 -0.0384312 0.10069895 0.19869684 -0.05683924 0.19567281 0.0007494817 -0.08240643
-0.06143306 -0.021551842 -0.08865209 0.063224845 -0.1839323 -0.08102761 0.048246216 0.10767539
-0.12658966 -0.1417271 -0.20474137 0.036091093 0.0313078 -0.021902004 0.19589394 0.008331963
-0.12916772 -0.15021956 0.06348148 0.18297148 0.25548095 0.04787088 0.053246915 0.002328877
-0.2831852 0.22146076 -0.14447466 -0.0688184 0.24188732 -0.25583905 0.031710494 -0.13864215
0.07507166 -0.09413997 -0.19325818 0.1487809 0.0076411613 0.11992466 -0.22587131 0.17613375
-0.015155844 -0.23869115 0.26929694 0.0043124654 0.06290545 -0.022359548 -0.19856788 -0.021599984
0.19661643 0.19519304 -0.13071892 0.19207776 -0.21638092 -0.21226756 -0.29562828 0.08294932
0.09184947 0.0971305 -0.289895 -0.25485012 -0.31099573 0.21668275 0.2590885 -0.111920595
0.26967466 -0.15185986 -0.12598512 -0.18624832 0.1590373 -0.26877743 0.21719952 0.12364582
0.22588132 0.033405937 0.17820676 -0.27460477 -0.25579503 0.26884395 0.1657018 0.24511243
-0.17718096 -0.3302585 -0.25970122 -0.13095392 -0.3032244 -0.20975178 -0.18691972 -0.2801533
-0.11550248 0.21343945 0.0922494 0.27039397 0.16207248 0.17964394 0.22789459 0.19916598
-0.13018318 -0.17474131 0.16150017 -0.009476382 -0.17959054 0.24245352 0.17693648 -0.0890354
0.16619 -0.27082276 -0.1774446 -0.22003475 -0.3303897 -0.25980672 -0.23964651 -0.2122323
0.103216566 -0.16923957 0.20320709 -0.051408924 -0.10166128 -0.18353489 -0.016450593 0.16795176
0.2880814 0.08320575 0.035499 -0.1036584 -0.25386715 0.315091 -0.2768547 -0.24015358
0.093127005 -0.17051588 -0.11651249 0.052296754 0.08590323 -0.14946759 -0.095681004 0.23681688
0.1659711 0.36488026 -0.37900054 0.23402177 -0.067794144 0.17680843 0.14008525 -0.05150716
0.09486327 0.22737224 -0.2056891 0.10578599 0.067526944 -0.057637 -0.004686129 0.0657981
-0.09846213 -0.27482933 -0.110564694 -0.09611017 0.08098281 0.0058541885 -0.20499404 -0.113832235

lstm.weight_hh_l0 f4 [200, 50]
00000000: 1650 ca3d 7039 0dbe c48b e63d 4b9c 3bbd
00000010: 2843 febc e576 1d3d 0bb8 313c c325 353e
00000020: 0052 56be fa50 2abe b9b4 203e d2f3 69be
00000030: 9239 a23d 79d2 1cbd 56d8 e1bd 5a13 08be
00000040: 0630 cc3c ba90 03be cb31 593d 734b a0bc
00000050: de45 143e 354b aebd 7f43 d0bd 60d4 c03d
00000060: 7631 853d 8b72 b3bd 0ef0 083d 1ccd e53b
00000070: 4efb 4c3d d765 b6bd db8e 22be 42f1 4ebe
00000080: c16a 803e dfbc 25be 7962 b43c aba0 133e
00000090: 8b93 633d f348 e9bd a725 5d3d 6f0e d83d
000000a0: 3bd0 4cbd 7dae a6bd 0009 25be b992 133e
000000b0: 8009 64bd 97c3 5a3d a30c 6d3d 2f99 d73d
000000c0: e8ea babc 2045 7f3e 0da4 953c 13a0 c8bd
000000d0: 7521 b63d 477e bfbd 4824 3b3d 712d 4bbd
000000e0: bc64 b6bc b71b cdbd 9c28 a5bc 8005 033e
000000f0: a26d 213e c061 b33d bda3 e5bc c445 24be
00000100: 61e6 51bd e1f4 343d 1656 5f3d 3479 8e3b
00000110: 54bf a33c e797 c73d 8f20 8d3c 0495 153d
00000120: f0e0 cbbc a029 57bd 0f12 e4bd 68e6 70bd
00000130: fe28 05be 20a0 bc3d aa76 843c 6d80 2d3d
00000140: a029 8ebc 3ecd 403d ffef 123b 5024 da3c
00000150: 07a3 dd3d 8ab8 173d 13a9 bcbd 5fc2 4c39
00000160: 6c4e bc3d 5462 0e3e 7d8a 02bd 402c 813d
00000170: 00fe 113d 6452 c0bd e7e2 40bd d9d8 af3c
00000180: d81b c9bd 382e 94bd 405e 023e b587 8c3d
00000190: 5189 db3c aa8c 2cbe 847a a33c 530e 383c
000001a0: 5bb9 453e 92db 9cbd 3b6a 0f3b 0ad5 653e
000001b0: 793c 92be 540c 9cbd 9963 d93d 190b 7abe
000001c0: 8ed9 9a3d 9cea 8fbc 3265 93be 8f34 2bbe
000001d0: bd08 303e 356f e6bd c64e 7dbb 6318 7dbe
000001e0: 1bb6 4a3e 399f 4f3e 64dc 863c 1ef5 4b3e
000001f0: 2eeb d43d e121 0abd b9b4 7bbc 3c1e d3bd
00000200: deed ae3e 38c5 cb3c cca1 8ebe 3599 3bbe
00000210: 0f1c 513e f51c 49be 4565 ca3d 7a67 aebd
00000220: cae3 553e c33d c13d e5e8 313e c036 a83d
00000230: b0fc 203e 6098 74bd fc38 e5bd 1bd0 8d3e
00000240: 06cc 0abd ba4d 7b3d 681e ea3d baae 813e
00000250: d6fb 48bc d27d da3d 6e70 103d 829c fdbd
00000260: 26bd f0bd 9e95 323e 0ebc cf3b 94e1 ecbc
00000270: 2bd2 2dbd dece ab3d 1cc2 d8bd 1902 543e
00000280: 7ce7 11be 00b0 70bd 3bdf 5cbd 5f15 a6bd
00000290: 85ce 343d 2640 1e3e 992f 0f3e 5c8a e4bc
000002a0: 228c 7abc bb65 b8bd 7314 603c e519 dc3d
000002b0: bde5 db3d a13b 99bd 4bc6 983e 2d4b a93d
000002c0: cd7e e63d b31f 8d3c f7dd 9f3c 5ea9 fcbd
000002d0: d96e bbbd 44da 5fbe f1f1 01be 7c06 d3bd
000002e0: ac98 ac3c 65df bcbd 76b5 46bc 2f3a 463d
000002f0: 62ae cd39 da77 19bd 0d41 d13d 4444 c4bd
00000300: a69e 543d 82f3 8abc f956 8ebc 2640 443e
00000310: e1b5 e43d fcfb 8abc aec9 843d 7034 d03a
00000320: 9723 a4bc 1c5f a8bc 1e1a e2bd e2f7 013e
00000330: f98c adbd be8d 0cbe f286 d4bc f681 193e
00000340: ccf4 0ebe 5295 c5bd c5e3 5b3d dc8f 7fbd
00000350: 13af 0c3e 0c66 5fbe dcc7 2cbd b15f 3cbe
00000360: fd56 d93d 6645 babd 9c31 843e 28a2 3d3c
00000370: a396 d93d e552 9bbd 43d9 debd 4b64 d13d
00000380: c263 613e 6181 a7bd 7e4f 42bb ee92 763c
00000390: 13b5 dc3d 9ebc b0b9 93c9 adbd ffd3 30bd
000003a0: 4639 273d 42eb c63d ccf2 b83b e434 753e
000003b0: 72b7 953d 9f49 19be f03a 6b3e 9bdf 353d
000003c0: 94aa 363d f230 48bd bdb0 6bbe 9cb4 773e
000003d0: 7a5c b8bd ccd1 543d 2e87 c8bd 0d67 67bd
000003e0: eb48 b43d c24e 4c3c e603 1fbd faab 46bd
000003f0: f3a9 cabc aa8f 4c3e 765b 8fbd eef5 f8bc
0.098785564 -0.13791442 0.11257127 -0.04580335 -0.031037882 0.038443465 0.010847102 0.17690186
-0.20929718 -0.16632453 0.1569394 -0.22846916 0.07921137 -0.03828666 -0.11027591 -0.13288632
0.024925243 -0.12848178 0.053026002 -0.019567227 0.14479777 -0.08510438 -0.10169124 0.09415507
0.065035746 -0.08762082 0.03343206 0.0070129763 0.05004435 -0.08906143 -0.15874808 -0.2020922
0.25081447 -0.1618533 0.022019612 0.14416759 0.05556063 -0.11390867 0.053990986 0.10549628
-0.05000327 -0.0813875 -0.16116714 0.14411439 -0.055673122 0.053409185 0.05787338 0.10527264
-0.02281709 0.24928713 0.018266702 -0.09796157 0.088931 -0.09350257 0.045688897 -0.049603883
-0.02226483 -0.10015052 -0.020160966 0.12795067 0.15764478 0.08758879 -0.028032178 -0.16042238
-0.051245097 0.044178847 0.054525457 0.0043479446 0.019988693 0.0974577 0.01722744 0.036519065
-0.024887532 -0.05252993 -0.11136257 -0.058813483 -0.13003919 0.09210229 0.016169865 0.042358804
-0.017353833 0.047070734 0.002242088 0.026628643 0.108221106 0.037041225 -0.09211936 0.00019527365
0.09194645 0.13904697 -0.031870354 0.06307268 0.035642624 -0.09390715 -0.04709139 0.021465706
-0.09819764 -0.07235378 0.12731266 0.068618216 0.026798876 -0.16850534 0.019955881 0.011233884
0.19308989 -0.07659067 0.0021883387 0.22444549 -0.28561762 -0.07619539 0.106147 -0.24418296
0.075610265 -0.017567925 -0.28788143 -0.16719268 0.17190833 -0.1125168 -0.003865169 -0.24716334
0.1979603 0.20275582 0.016462512 0.19917724 0.103964195 -0.033723716 -0.015362912 -0.10308501
0.34165853 0.024874315 -0.27857816 -0.18320163 0.2042086 -0.19639952 0.09882597 -0.0851583
0.20887676 0.09435608 0.17373998 0.08213568 0.15721393 -0.05971563 -0.111925095 0.27697834
-0.03388598 0.061353423 0.11431581 0.25328618 -0.012267074 0.106685296 0.03526347 -0.12383367
-0.11754827 0.17439887 0.0063395565 -0.028916158 -0.04243676 0.08389066 -0.105838984 0.20703925
-0.1424846 -0.058761597 -0.053923827 -0.08109545 0.044142265 0.15454158 0.13983001 -0.027898006
-0.015292199 -0.090037785 0.0136767505 0.107471265 0.107371785 -0.074820764 0.29838786 0.08266292
0.11254654 0.01722703 0.01951502 -0.12336992 -0.09152002 -0.21860605 -0.1268995 -0.10303971
0.021068893 -0.092222966 -0.012128225 0.048395332 0.00039230572 -0.037467815 0.102174856 -0.09583333
0.05190911 -0.016961817 -0.017375456 0.19165096 0.11167503 -0.016965859 0.0648378 0.0015884768
-0.020036502 -0.020553164 -0.11040138 0.12692216 -0.08474154 -0.13725945 -0.025943253 0.14990982
-0.1396057 -0.09647621 0.053684015 -0.062393054 0.1373866 -0.21816272 -0.04218279 -0.18395878
0.10612295 -0.09095268 0.258191 0.011574306 0.10624435 -0.0758417 -0.10881283 0.102242075
0.22010711 -0.08178974 -0.0029649432 0.015049679 0.10776725 -0.00033709867 -0.08485713 -0.043170925
0.040826105 0.097128406 0.005644178 0.23945957 0.0731038 -0.1496949 0.22971702 0.0444027
0.04459627 -0.048874803 -0.23016639 0.24189991 -0.090020135 0.05195789 -0.097914085 -0.05649476
0.088029705 0.012469949 -0.038822077 -0.048503853 -0.024739241 0.19976678 -0.06999867 -0.030390706

lstm.bias_ih_l0 f4 [200]
00000000: ff75 8e3e 041f b13d b501 883d 8d92 203c
00000010: 2ff7 413e ec7b 09bd f409 c03d 471d 45bd
00000020: 3c8e e4bd 5527 443e e712 1d3e a9e9 bbbd
00000030: 0b19 8abb 8d47 3cbd 0ed8 ac3d 7e67 343e
00000040: c7c0 bd3d e32b eb3c eb81 223d 9398 573d
00000050: 0279 45bd 495d 3b3e 646b 0f3d f345 64bc
00000060: c226 7f3e 3268 7a3d 09e0 173d 12ba 463e
00000070: 5244 ec3b e9b1 93bd c423 99bc 6f0c 0b3e
00000080: 2523 55bd 6e2f 19bd 57bc 1fbd a26a 90bc
00000090: da30 4a3d 211a 0c3c a067 32bd d3c4 a33c
000000a0: c13d 81bb fe5c 143e ef02 cabc 7949 0cbe
000000b0: 6318 e33d 9fda 473e abf2 d13d 02b2 00be
000000c0: 510e 643e 4c2c 023d 4939 433d a292 7e3c
000000d0: 59b8 c3bd 06b3 25be f900 1ebe a36f 573d
000000e0: 6973 4bbe 1c92 04be c221 e6bd ec58 353d
000000f0: 969a d4bd fe57 803c eaaf 3f3d 5905 dabd
00000100: 2e00 c33d e1b3 fb3d dfcf c8bd a776 98bd
00000110: 3a53 bf3c df4d 39be b3d7 e23c 53eb 88bd
00000120: b444 8cbd 171d b13d b56b 853c f110 b4bd
00000130: 8adc d83d 96f5 3cbe 6822 293c 4c35 1c3d
00000140: 839d 66bc 6712 e6bd c149 8abd 0dc7 1cbd
00000150: 53d8 2a3d b56b 68bd d7c9 73bd 7eea dc3c
00000160: 7c1f aebd 0382 883c 023d 063d 5226 fcbc
00000170: 23b1 28be 2ee6 c4bc b5ac 753d 76b2 bcbd
00000180: 66f8 03be 535b a63d 38dd 88bd 4ea7 cbbd
00000190: 0cc6 bf3c 92d1 d8bd 443c 87b9 0be3 19bc
000001a0: 2874 163d b005 32bd 9c85 553c da87 1d3d
000001b0: 089b 6cbd 1ebb afbd 5623 a93d 87e3 c2bd
000001c0: 810b 3e3d 1368 f9bd ef4a fb38 c91e 5ebd
000001d0: 84e1 273d b2fe ecbd f457 f03d a1b4 10be
000001e0: 5104 113e deab efbc 5a29 0abd cad1 fb3d
000001f0: 89f8 9dbd 86cc 85bc 5e59 543d 342a 70bd
00000200: 41bc 0c3d 6323 efbd 718e e0bd 7555 80bb
00000210: 0833 103d 702f 97bd 7926 29bd 0a21 8d3d
00000220: 3e4c 0fbc 07fb 043c 5c51 e8bb f3aa 243d
00000230: f585 a93c 353f 5b3c fa62 94bd a185 d33c
00000240: 7197 5abb e058 ba3d ea7d 19bc e047 6f3d
00000250: 5be7 cb3d 4b18 da3d 4179 863e 99d0 e63d
00000260: 1673 983a 5393 a1bd 7dde 1b3e 5b5b 83bd
00000270: 4ce7 b03c 9885 aa3d 6518 e93d 195e 053e
00000280: 2075 b5bd 9293 9dbd dd72 99bd 99ec df39
00000290: d3bc 103e 8d6e 533e 64b4 32bc de54 80bd
000002a0: f628 953d 30ed 163e 9a94 ed3b a365 533e
000002b0: c15c 2c3e 4a7b 133c f9ee 613e 83e2 de3d
000002c0: 0974 50bd 2e50 a73d 377d 783d 4155 52bd
000002d0: 2d88 aabc 0307 c93e ce35 183e 1c0c 233e
000002e0: af92 653d 41f5 f63d c8aa ec3c dc77 023e
000002f0: f9f0 5e3d a2de b5bd ac33 3d3e 7c46 9fbc
00000300: c49f bc3d e670 0a3d 5b4b 3d3d c988 0f3e
00000310: be49 bb3d c224 d73c 77a6 313e 0694 773e
0.278244 0.08648494 0.066409506 0.009800565 0.1894195 -0.033565447 0.093768984 -0.048123624
-0.111599416 0.19155629 0.15339242 -0.091754265 -0.004214411 -0.045966674 0.08439647 0.17617604
0.09265285 0.02870745 0.03967468 0.05263574 -0.048211105 0.18297304 0.035014525 -0.013932693
0.24917129 0.061134525 0.03707889 0.19406918 0.007210293 -0.07211668 -0.018693812 0.13578962
-0.05203547 -0.037398748 -0.038997974 -0.017628971 0.049362995 0.0085511515 -0.043555856 0.019991314
-0.003944129 0.14488599 -0.024659602 -0.13699903 0.11088636 0.19516991 0.10251363 -0.12567905
0.22271086 0.031780526 0.047662053 0.01553789 -0.09556646 -0.16181573 -0.15430059 0.0525967
-0.19868244 -0.12946361 -0.112369075 0.044274256 -0.103810474 0.015666958 0.046798624 -0.10645551
0.09521519 0.122901686 -0.09805273 -0.07444506 0.023355115 -0.18096112 0.027690744 -0.066855095
-0.068490416 0.086481266 0.01628671 -0.08792294 0.105889395 -0.18453059 0.0103231445 0.038136765
-0.01407564 -0.11233979 -0.06752349 -0.038275767 0.04171021 -0.056743342 -0.05951866 0.026967283
-0.08502099 0.016663557 0.032773025 -0.030779991 -0.16473822 -0.02403554 0.05997916 -0.09213726
-0.12887725 0.081228875 -0.06682819 -0.0994402 0.023409866 -0.10586847 -0.00025794108 -0.00939251
0.03673187 -0.043462455 0.013032343 0.038459636 -0.057765037 -0.08580612 0.08258693 -0.09516054
0.04639769 -0.12178054 0.0001198257 -0.054228578 0.040986553 -0.11572017 0.11735526 -0.14131404
0.14161803 -0.029256757 -0.033730842 0.122958735 -0.0771342 -0.016332876 0.05184304 -0.058633998
0.03435922 -0.11676671 -0.109646685 -0.0039164373 0.035204917 -0.07382095 -0.041296456 0.06891067
-0.008746205 0.00811649 -0.007089777 0.040202092 0.020693759 0.013381769 -0.07245441 0.025820555
-0.0033354426 0.09098983 -0.009368399 0.058418155 0.09956237 0.10649165 0.26264384 0.112702556
0.0011630978 -0.07889428 0.15221591 -0.06413909 0.021594666 0.08326262 0.11381606 0.13024177
-0.088602304 -0.076941624 -0.074926116 0.00042710154 0.1413453 0.2064764 -0.010907266 -0.06266187
0.07283203 0.14738917 0.0072503807 0.2064424 0.16832258 0.009001562 0.22063817 0.108830474
-0.05089191 0.0816959 0.06066629 -0.051350836 -0.020816887 0.39263162 0.14864275 0.15922588
0.05604809 0.12058497 0.028890029 0.12741035 0.05442903 -0.088803545 0.18476743 -0.01944279
0.092101604 0.033799075 0.046214443 0.14017023 0.091449246 0.026262645 0.17348658 0.2417756

lstm.bias_hh_l0 f4 [200]
00000000: 77ec 753e cb55 cd3c c317 7d3e c356 bcbd
00000010: 3dda cc3d fbfd cebc 1ae6 10be 284b 233d
00000020: 62a4 05bd f9f2 d0bc bc11 fe3d 643c a53d
00000030: 6459 4e3d e974 10bd d4dd 173e d371 273e
00000040: 633a f3bc 5a5d 76bd b45f acbd 2ea6 cc3c
00000050: 0769 8b3d b040 4d3e ecfc 643e 5da1 ccbd
00000060: 7924 c93e a0de 8f3d e1a9 0e3e 44f9 8b3e
00000070: 85d7 1ebb 43f0 1d3d b0db d13d 35cb 543e
00000080: efbe b53b 2c14 e8bd f7d9 5f3b 71ae bfbc
00000090: 7695 a8bd 924a 0a3e 4e0d 273d 35f8 32bd
000000a0: 8743 303b a356 90bd 59fc f1bd d765 5fbc
000000b0: fd27 c33b 7f54 0d3e 4207 2a3d 5fd5 e3bd
000000c0: 740f 693e e0db e43d 95c6 9c3d 2e4e 09be
000000d0: 3815 503d 370f babd e789 22be c4e8 83bc
000000e0: c97d 40be 6352 0f3c d46e b93d 3e15 6d3d
000000f0: d7c3 333c a0a7 853d 35f0 d5bd 0a36 a63d
00000100: 3cad 263e dd71 a4bd 9977 143d 3641 9fbd
00000110: 2aa0 c43d 6370 06be b900 d83d d530 38be
00000120: 9864 91bd 057e 2cbd c7eb 45be a4a6 4a3d
00000130: 6cbf acbd 2c59 32be b0d2 e4bc 1e88 97bd
00000140: eb17 8cbd 4524 80bd 40c5 ea3d 6176 01be
00000150: 2c24 833d 02bb 923d 80d3 913d e612 be3d
00000160: 7c42 da3d 819e 9cbd 008c f9bd 3269 debd
00000170: 0a27 b03d f762 bcbd a57c 013e b8cf c83d
00000180: 9247 e53d e76b 04be c70a 3fbe 5ed1 353d
00000190: d492 263d 47ec d1bd a438 9cbc ffcb 3d3d
000001a0: cb79 b0bc 20db 413d 1254 5a3d 253f c63d
000001b0: cb2f 97bd 8d92 65bc 6c1a c53d 1f85 293d
000001c0: 0562 583d 9f8b e5bc c957 b7bd 2478 bebc
000001d0: 457a 983d f033 0f3d 62dc 45bc 06e6 d13d
000001e0: f79d 96bd 1e92 08bc 2266 c2bc b325 15bd
000001f0: a74d c33d 60f0 8cbd 4ea5 dabd 2cd0 cb3d
00000200: fca6 02bc da7d f53d f04b 63bd 3317 f4bc
00000210: 0b5b 023d c1f2 833c bf20 643d 4650 6f3c
00000220: ee38 423d f4a1 afbd 568b ad3d 9266 4e3d
00000230: 9950 283b 9e52 8dbc fec1 15bd c3b7 0f3e
00000240: 5f46 d7bd 3c4c a83d ea12 273d 4fcf be3d
00000250: eca3 abbd 48d0 0f3d aed8 4a3e d23e 8a3d
00000260: aa20 3d3e 1e51 603d b510 4c3e a331 e33d
00000270: 0d90 2d3d 52c4 273e 27ab c6bc 41e6 bcbc
00000280: 4473 e13d 756c 80bd f56f d03d 8e66 11be
00000290: ced6 cfbd 9a3e 893d 46f5 813d 2fb5 ca3d
000002a0: 4aee cf3d 41a1 623e 0d58 893d 67a2 893e
000002b0: d57b 11bd 8383 15be b605 313e 31b7 c53d
000002c0: 0cec d1bc a457 873e 682d 35bd 3789 3b3d
000002d0: f1fb 91bd 02e1 973e 2294 663c 9b76 adbb
000002e0: 2603 f93d bc44 133e b00e bb3d 3476 06bc
000002f0: a773 983d bbea 683d 72f1 eb3c 404d 3a3e
00000300: 45cd 0d3e e7fb c83d 9b67 0abd 19e5 3e3d
00000310: 6693 0e3e 8818 b33d 1c86 bd3d 5e6c 053e
0.24015985 0.025065323 0.24716096 -0.09196236 0.10002563 -0.025267592 -0.14150277 0.039866596
-0.03262747 -0.025506483 0.12405726 0.08068159 0.05037822 -0.035267744 0.14830714 0.16352014
-0.029690927 -0.06014762 -0.084166914 0.024981584 0.06807142 0.20044208 0.22362107 -0.09991715
0.3928564 0.07024884 0.13931991 0.27338612 -0.0024237346 0.03855921 0.1024698 0.20780642
0.0055464427 -0.113319725 0.0034157017 -0.02339861 -0.082316324 0.13505009 0.040784173 -0.04369374
0.0026895718 -0.07047775 -0.118157096 -0.01363512 0.0059556947 0.13801764 0.041510828 -0.11124682
0.22759801 0.1117475 0.07655064 -0.1340873 0.050801486 -0.09084933 -0.15872918 -0.016102202
-0.18797983 0.00874767 0.09054342 0.057881586 0.010971985 0.065261126 -0.104462065 0.08115776
0.16277021 -0.0802953 0.03624687 -0.0777611 0.09600861 -0.1312881 0.10547013 -0.17987378
-0.07099265 -0.04211237 -0.19328223 0.049475327 -0.08434948 -0.17416829 -0.027932495 -0.07399009
-0.068404995 -0.06256918 0.11463404 -0.12642814 0.064033836 0.07164575 0.071204185 0.09280948
0.10657212 -0.0764742 -0.12184906 -0.10859908 0.08601196 -0.091985635 0.12645204 0.09805244
0.111952916 -0.12931786 -0.18656455 0.04438912 0.04066737 -0.102501445 -0.019069977 0.046337124
-0.02154245 0.047328115 0.053302832 0.096800126 -0.07382163 -0.014011991 0.0962418 0.04138672
0.052827854 -0.028020678 -0.089522906 -0.023250647 0.07445196 0.03496164 -0.012076469 0.102489516
-0.07354348 -0.008335618 -0.023730341 -0.036412906 0.095362954 -0.068817854 -0.106760606 0.09951815
-0.0079743825 0.11986895 -0.05549234 -0.029796218 0.031825107 0.016106965 0.05569529 0.014606541
0.047417574 -0.08575812 0.08473842 0.050390787 0.0025682806 -0.017251309 -0.03656196 0.14034943
-0.10511469 0.082176656 0.040789522 0.09316885 -0.08380875 0.03511074 0.19809219 0.06750263
0.18469492 0.05476486 0.19928248 0.11093452 0.042373706 0.16383484 -0.024251534 -0.023059012
0.11008313 -0.062706865 0.10177604 -0.14199278 -0.101483926 0.067013934 0.0634561 0.09897839
0.10152872 0.22131826 0.067062475 0.26881716 -0.035518486 -0.14600949 0.17287335 0.096540816
-0.025625251 0.26434052 -0.044232756 0.045785155 -0.07128132 0.29663855 0.014073404 -0.00529368
0.12158804 0.14381689 0.09133661 -0.008206893 0.07443934 0.05686448 0.028801654 0.18193531
0.13847835 0.098136716 -0.033790212 0.046605203 0.13923416 0.08744913 0.09254095 0.1302962

lstm.weight_ih_l1 f4 [200, 50]
00000000: 34c0 6abe c2f3 213d 32e6 1ebd 8416 b73c
00000010: e863 853e b22c 103d b6cd 2e3e 5096 343e
00000020: 7ac1 863a a6fb 18be 154d 9a3d 55dc 663d
00000030: b6e8 0b3e 8a92 073e 3a92 88bd a438 76bd
00000040: 5b18 adbd d104 c5bd 5a9c a9bc 0c9c eb3a
00000050: 6e26 cdbd d998 e63c 2a0f ecbc b5e7 40bd
00000060: d4d1 25be 586e 1e3d 9581 703d 4ef8 f3bd
00000070: 240a 08bb b5ce 563d c4ed 8d3c 36ee 813e
00000080: f9cc 8a3d 49a8 aebc dc05 43bd 8ff1 60bd
00000090: 48c0 603d 97fc 2dbd f58d d73d 464b a9bd
000000a0: 2e39 0cbd 3a1f 0b3e 2e99 f2bd 352d be3d
000000b0: a522 18be 99e1 9abb e00e 0bbe f5e7 42be
000000c0: 405d a6bd 0abf acbd d922 d63c a906 d7bd
000000d0: 5810 b03e aa0a c93d e05c c73e 01ac 9cbd
000000e0: 21a1 943e 8583 c73e 8216 903c d8b9 6ebe
000000f0: 2d6f 8b3e 2d34 68be b572 a23e 09fa 39be
00000100: 613d f7bd 175f 72be 02ec 8d3d eeb3 46be
00000110: b474 013e 4e8a 9fbd e3d7 4f3e cf9f 95be
00000120: 88a2 89be f548 a73e 9629 f6bd e139 87be
00000130: 63ab 59be 9ce3 cbbe 7094 8b3e 9082 0f3e
00000140: 1108 e8bd b2eb f33c fe7d ec3d 8730 a33d
00000150: 796b c93d 4e03 e03d 6986 173e ee10 ccbd
00000160: 2926 993d fe7a e73d 187b 4cbe daae 9d3e
00000170: df2f 14be bcc2 c23e 695c a5be b4a7 8a3c
00000180: bc23 92be acdc 3ebe 592b 883c 0dc3 803d
00000190: 44c9 a73d 495b 423d d338 2f3e 2500 3cbe
000001a0: 7b72 36bd ca02 9b3d ff96 dabd 1451 d33d
000001b0: 3c93 d33d 840c acbc dd5c 263e 765b 123c
000001c0: d141 ef3d 990d 2ebe ec80 fdbb cdf8 fbbd
000001d0: ed9f ccbd eb25 9d3d 5580 403e d611 cbb8
000001e0: 687a 1dbe c281 a43c c351 efbd 3dac 1fbe
000001f0: eb13 233e 2dbc 1fbe aa52 42be 39f2 9cbd
00000200: f7e4 03be c07b e73d e987 7a3d 1c6d 893b
00000210: 19f2 54bd ae17 a03d 720b 653d 9869 e03d
00000220: cbc5 48be 6240 8b3c 4f86 e73d b247 88bd
00000230: c281 1bbe 185b 373e 8628 edbb 970f 893d
00000240: 15e5 acbb b71a 33be 392e 4f3d 3dd3 1bbe
00000250: f15c ad3c 06bc 2fbd 0871 903d 059b 173d
00000260: ebe6 d4bd b4a5 b0bd 083d d3bd 85ab e53d
00000270: 1fcc 1e3e 76f9 56bd 6e65 a1bd 4508 fc3d
00000280: 3c64 e03d ed9b 04be fd13 153b 9c81 dbbd
00000290: 0a83 753d 303a 1fbb beec 67bc 0d8c dbbd
000002a0: d565 9a3c 60bf 1ebe 7e56 3c3e 783a 3d3e
000002b0: 18bf 933d bbd9 983d 1cf5 4a3e 7fb3 f2bd
000002c0: c735 c93d bd56 933e 77eb 403e fea7 1dbe
000002d0: da53 123d 3879 63be c6ab 913d de98 9d3d
000002e0: 635e b7bd 39ca e93c 768a a63d f11e 3e3d
000002f0: cc93 81bd 2364 343e e5f4 80bd 587d dbbd
00000300: 3b50 763d 8d57 12bd 3449 9dbd 93bf ea3d
00000310: 674b a6bd e7e3 073e b3c6 3cbd 12ca c63c
00000320: 2608 013d ef4b 4d3c 6329 80be ff58 aa3d
00000330: 181e f23d a8f3 bebd f232 ccbc 52ed c23d
00000340: b090 c03d b9fa bd3d 318f 28bd ad40 12bd
00000350: 98f8 fcbd 2478 be3d e8cf 37be 2c88 fabb
00000360: 5cb9 a7bd cdd0 a2bc 9259 76bc 5806 c83d
00000370: d331 bb3c 5761 a9bc 4860 0a3e 715d 9d3d
00000380: fb56 eabd eb44 1c3e e818 173e b659 323d
00000390: c651 693b 4931 14bd c7a6 12be 0668 14be
000003a0: 833a b2bd e1ac 33be b5dd 66be c383 4bbe
000003b0: 8fbf 303e 64d0 4e3e 72cf c1bc c570 943c
000003c0: 76e1 cb3d 429a 91bd 00a9 1dbe bc21 7fbd
000003d0: 54e8 23be 518e 7fbd 062b 94bd afe1 e1bd
000003e0: ddb5 f23c 8850 cdbb 33c0 07bc 0aaa 113c
000003f0: 0e26 8fbe 9305 9dbc 2511 48be 4a7f f13d
-0.22924882 0.039539106 -0.03879375 0.022349603 0.26052785 0.035198875 0.1707066 0.17635465
0.0010281049 -0.14939746 0.075342335 0.05636247 0.13662991 0.13239494 -0.066685155 -0.06011261
-0.08451911 -0.09620059 -0.020704437 0.0017975583 -0.100170955 0.028149055 -0.028815825 -0.047095973
-0.16193324 0.03867945 0.05871733 -0.11912595 -0.0020757997 0.052443225 0.01732529 0.25377053
0.06777377 -0.021320479 -0.04761301 -0.05491787 0.054870874 -0.042477217 0.10525123 -0.082663104
-0.03423422 0.1358613 -0.11845623 0.09285966 -0.14856966 -0.0047266004 -0.13579893 -0.19033797
-0.08123255 -0.08434875 0.026139664 -0.10499317 0.3438747 0.09816487 0.38938046 -0.07649995
0.29029182 0.3896753 0.017588858 -0.23313081 0.27233258 -0.22676153 0.3172814 -0.18161787
-0.12072254 -0.23669086 0.069297805 -0.19404575 0.12642175 -0.077900514 0.20297198 -0.29223487
-0.26881814 0.3267285 -0.12019651 -0.26411346 -0.21256785 -0.3982209 0.27261686 0.1401465
-0.113296635 0.029775474 0.115474686 0.0796824 0.09834952 0.1093813 0.14797367 -0.099641666
0.074779816 0.11302756 -0.19968832 0.30797464 -0.14471386 0.38039196 -0.32297066 0.01692567
-0.28542888 -0.18638867 0.016622232 0.06287203 0.08192685 0.047450338 0.1711152 -0.1835943
-0.04454277 0.07568891 -0.106733315 0.10318199 0.10330817 -0.021002062 0.16246362 0.008932939
0.11682475 -0.16997375 -0.007736316 -0.12303314 -0.09991441 0.07673248 0.18798955 -9.6831165e-05
-0.15378726 0.020081405 -0.11685517 -0.15593047 0.15925567 -0.15599127 -0.18976846 -0.07663388
-0.12880312 0.113029 0.06116477 0.004193915 -0.051988695 0.078170165 0.05591912 0.109576404
-0.19606702 0.016998474 0.11304914 -0.066543 -0.15186217 0.17905843 -0.007237497 0.06692427
-0.005276332 -0.1749066 0.05058119 -0.152173 0.021162482 -0.042903922 0.07052809 0.037013073
-0.103956066 -0.08625355 -0.10314375 0.112143554 0.15507554 -0.052484 -0.07880674 0.12306265
0.10956618 -0.12950106 0.002274751 -0.107180804 0.05993942 -0.0024296157 -0.014155565 -0.10720072
0.018847385 -0.15502691 0.18392369 0.18479335 0.072141826 0.07463404 0.19820064 -0.118506424
0.0982471 0.28777114 0.18839823 -0.15396115 0.0357245 -0.2221421 0.07112841 0.07695173
-0.0895355 0.02853881 0.08131878 0.046416227 -0.06327018 0.17616324 -0.0629671 -0.10717267
0.060135107 -0.035728026 -0.07679978 0.11462321 -0.081198506 0.13270532 -0.04608793 0.024266277
0.03150191 0.012530311 -0.25031576 0.08317756 0.11822146 -0.093238175 -0.024926636 0.095179215
0.09402597 0.09276337 -0.041152183 -0.03570621 -0.12352103 0.09300259 -0.17950404 -0.0076456275
-0.08189651 -0.019874955 -0.015036004 0.09766835 0.022850906 -0.020676298 0.13513291 0.07683838
-0.114423715 0.15260665 0.14755595 0.043542586 0.003560172 -0.036179814 -0.14321433 -0.14492807
-0.087025665 -0.17546417 -0.22545512 -0.19874482 0.17260574 0.20196682 -0.023658488 0.018120179
0.09955113 -0.071095005 -0.153965 -0.06228803 -0.16006595 -0.062391583 -0.072347686 -0.11029374
0.029627735 -0.0062657036 -0.00828557 0.008890638 -0.2795872 -0.019167697 -0.1953779 0.117918566

lstm.weight_hh_l1 f4 [200, 50]
00000000: 1b77 1abd 9a53 1e3e 96a2 56bc 8a13 583d
00000010: 480f d93c 8807 9fbc 3450 1f3e 3f9e 1fbe
00000020: 9658 cc3c 456d 50bc 7a47 103e a801 613d
00000030: 3e12 5abd 43e6 e1bd b9a0 df3c 02a9 25be
00000040: 8236 d1bd 5d32 8c3c fdb1 823d 0961 a03c
00000050: 0eae 91bd 6b88 973d 1e9d 933c eba7 8b3d
00000060: a7e6 963b 2460 123d af70 033e 58ba aabc
00000070: be2c 15be 6c63 8fbe e9bd 5e3e 317f 89be
00000080: a1a4 f43c 81e9 2cbd c533 b63d 0934 1c3e
00000090: 7a2c 2dbe 6f3b debc b0b1 e0bc 96ac c53d
000000a0: e17c 8ebd 669f 1a3c 2b2b 64bb 233c 933d
000000b0: 1950 d3bd f8a6 123e c51a 32be a260 c03d
000000c0: 3154 3c3d 4baf 46be 075c 80be da78 c9bd
000000d0: f928 b13d 6d44 803e b3b8 b03e 0885 8ebe
000000e0: 87a3 b0be 7056 8f3c 81b1 4b3c 72d4 4dbe
000000f0: 3135 f93e e380 373e 1386 72be 9443 263d
00000100: e5e6 b43e 6b9c dd3c 7bd6 9fbe b06b 853e
00000110: 8e24 993d 2084 86be b754 863e 6a01 b5bd
00000120: ed97 18be 8ec8 a2be 3944 88be c16d b33d
00000130: 5087 a93d 1cd8 18be c337 58be e7f8 a1be
00000140: 7de6 3f3e 4208 9ebe c7f4 4f3d 8e23 92be
00000150: 5405 b03e 0388 123e 9852 043e d217 693e
00000160: b521 32be 890a fd3d 28f7 d4be b0b4 613d
00000170: 2fe7 903e d417 51be 2d66 88be c598 88be
00000180: 6324 0dbc e8ac 7bbe 6afc 693e c4d1 7a3e
00000190: ea05 d4bc 1927 80bc 450e 8cbc d06e 153e
000001a0: b8c6 1d3e d169 e3bd 5dbd 7cbd 7e17 21be
000001b0: 306b 8cbc 24c0 6ebd 9ef5 103b af20 223d
000001c0: 607a 763c 2040 ae3c c001 c1bb bac4 7f3d
000001d0: f838 debc 565b 54bd 7f40 67bd 6dd8 783d
000001e0: 2e2d 963d 8bd1 e13d e2f3 77bd b34a cbbc
000001f0: c0f1 9d3d f9e7 273d 082f babd c4fd 3c3d
00000200: 1622 18be ee32 ca3c bdef 383b b4e1 01be
00000210: 0e03 bf3d 305e dfbd dccd 023e f741 c6bd
00000220: 6491 b33d 19a7 ba3a bbc9 a3bd 2555 ddbc
00000230: 6bbc 0d3d fc33 dabd a088 d53d bd25 993d
00000240: 1439 6c3b dfa3 493d 3dfa d13d 45cb e4bd
00000250: 422f dd3d d16d 92bd ffe0 86be 649c e5bd
00000260: a844 203e cf15 433b 2e81 95bd e2a1 2ebd
00000270: 1573 cfbd 7288 963d eb74 bfb9 0ccd 47be
00000280: 698b 053d fc61 113e c096 a7bd ad14 45be
00000290: 8265 883e 8ff7 ee3d a5d7 e33d da8d fb3d
000002a0: eedd f73d 6650 fa3d 75ac d9bd da0a 30bc
000002b0: 3878 b9bd 6f37 32be ac6b e3bd c1ed 8c3d
000002c0: 7a23 9a3d d6e4 f43d 1b38 dbbd 925d 12be
000002d0: d58b 0d3e 26a8 c5bd 8c4b 263e ab54 71bd
000002e0: 81fd bc3c 9cba abbd 7c10 a53d d1db 8b3d
000002f0: 8e68 88bd 4ca2 92bd 610c 38be 6850 4fbd
00000300: e08d 0f3e 0ceb 333d 1d91 5abe c1ff 3cbd
00000310: 0636 993d 5156 21bc 7f27 353d 25e0 493b
00000320: 65f5 093d 2e95 ec3d c787 fb3d 4e13 123d
00000330: 479c 053e 6cf6 08be e276 6dbd a38d 163e
00000340: fecc cf3d 8c50 c1bc c681 86bd fc86 943d
00000350: b9cd e3ba 3b24 89bd 6136 323e bf26 903d
00000360: 628b ddbd 8c49 faba e0af 8c3d 7b8a 243d
00000370: 77d8 3bbc 0b57 093e 653c a7bd e0a9 9cbd
00000380: d086 2b3e b661 1fbd 7605 debd 4636 233e
00000390: ebee d83c ee84 fc3d ec91 bbbd fa29 d4bc
000003a0: 2105 9d3d 4d7c a43d 1ad4 133c a1ce fb3c
000003b0: cf1e 293e 1688 afbd babb d1bb 1f32 cdbd
000003c0: 5220 df3d a486 99bd cf69 a9bd d225 9dbd
000003d0: feaf 22be c480 f1bd 6944 27bd 498f 09bd
000003e0: 889e 17be 1a70 da3d 4cc4 87bd e086 ecbd
000003f0: dc75 543e a2ad 41bd b32a 1a3d 043e 99bd
-0.037711244 0.15461579 -0.013100287 0.05275301 0.026496544 -0.01941277 0.15557939 -0.1558771
0.024944585 -0.012721364 0.14089766 0.05493322 -0.053240053 -0.11030247 0.027298318 -0.16177753
-0.10215475 0.017113859 0.06381605 0.01957752 -0.071132764 0.073990665 0.018019255 0.06819137
0.0046051326 0.035736218 0.12835954 -0.020840809 -0.14567849 -0.2800554 0.21752132 -0.26854852
0.029863657 -0.042214874 0.08896593 0.15254225 -0.16911498 -0.02712795 -0.027428478 0.09652059
-0.069574125 0.009437418 -0.003481577 0.071892045 -0.10318012 0.14321506 -0.17393024 0.09393431
0.04597873 -0.19402806 -0.2507021 -0.09837504 0.08650393 0.25052205 0.34515914 -0.2783587
-0.3449976 0.017497271 0.012432457 -0.20100573 0.48673394 0.1792026 -0.23683958 0.04059179
0.3533241 0.027052125 -0.31218323 0.26058722 0.074776754 -0.26272678 0.26236507 -0.0883816
-0.14901705 -0.31793636 -0.2661455 0.08761168 0.08277762 -0.14926189 -0.21115021 -0.3163521
0.18740268 -0.30865675 0.050770547 -0.2854275 0.34379065 0.14309697 0.12922132 0.22762993
-0.1739567 0.12355525 -0.41594815 0.055103958 0.2830138 -0.20419246 -0.26640454 -0.26679054
-0.008614632 -0.24577677 0.22850195 0.24494082 -0.025881726 -0.015643643 -0.017096648 0.14593053
0.15407836 -0.11104167 -0.06170403 -0.15731618 -0.017140955 -0.05828871 0.0022119056 0.03958195
0.015043825 0.021270812 -0.005890101 0.062443472 -0.027126774 -0.051844917 -0.056457993 0.060753275
0.07332836 0.11026295 -0.06053532 -0.024815893 0.07712126 0.04099271 -0.09091002 0.046140447
-0.14856753 0.024682488 0.0028219067 -0.12683755 0.093267545 -0.10906637 0.12773842 -0.096805505
0.087679654 0.0014240473 -0.079974614 -0.02701814 0.034603518 -0.106544465 0.1042645 0.07477901
0.0036044763 0.049228545 0.10252807 -0.11171583 0.10800029 -0.07149852 -0.26343533 -0.1121147
0.1565119 0.0029767638 -0.0730003 -0.042634852 -0.10129372 0.07350244 -0.0003651747 -0.19511813
0.032603655 0.14197534 -0.0818305 -0.19246168 0.26639944 0.11668312 0.11125115 0.122829154
0.121028766 0.12222366 -0.10628597 -0.010744775 -0.09056133 -0.17403959 -0.11104521 0.068812855
0.07526298 0.119577095 -0.10704061 -0.14293507 0.13822873 -0.096512124 0.16239756 -0.058918636
0.023070099 -0.08385202 0.08059785 0.06829036 -0.06660567 -0.07159862 -0.17973472 -0.05061379
0.14018965 0.04392533 -0.21344419 -0.046142343 0.07481007 -0.00984724 0.04422712 0.0030803767
0.033681292 0.11551891 0.12281757 0.03566294 0.13047896 -0.13375252 -0.057974704 0.14702468
0.10146521 -0.023597978 -0.06567721 0.07252309 -0.0017380036 -0.066963635 0.17403556 0.0703864
-0.10817601 -0.0019095405 0.06869483 0.040171128 -0.011465183 0.1341211 -0.08165816 -0.076495886
0.16750646 -0.038911544 -0.10840885 0.15938672 0.026481112 0.12330042 -0.09158692 -0.025898922
0.07666994 0.08031521 0.009022737 0.030738177 0.16515659 -0.08570878 -0.0064005526 -0.100193255
0.108948365 -0.07496384 -0.082721345 -0.07673229 -0.15887448 -0.11792138 -0.040836725 -0.033583913
-0.14806569 0.10665913 -0.066292375 -0.11549163 0.20748085 -0.04728473 0.037638377 -0.07482532

lstm.bias_ih_l1 f4 [200]
00000000: aa8c 0bbe 0a07 a53e 4ce6 1b3e 96b6 31bd
00000010: cff3 05be 4271 e63d 1ee1 88bd af86 0f3e
00000020: 5ee6 ed3e 7271 013d d608 ac3c 0591 a53d
00000030: f59e 8a3d f018 28bc b249 3b3e f220 75bd
00000040: 67e1 1e3e 44d0 113d 9c30 213d c437 d63c
00000050: 96a8 87bd 2e76 3bbc 561c d63d e78d 2a3e
00000060: c105 c73b 8f9b 6d3d 83fa c93d e8c7 eeb9
00000070: 808c 973c 1bdf e1bd 577d 97bd 8777 2b3e
00000080: f2fe 4a3d 2be7 fcbd d39b 88bc 5094 9fbd
00000090: d357 c4bb 7d88 5ebd 0fba 19bd e302 fd3c
000000a0: 8453 e4bd 2e13 c23d cfc1 2cbd 2782 12be
000000b0: 2633 acbd ac68 bebd 73a5 f23d 1924 9abd
000000c0: a8f0 eebd b986 21be 9baa af3d 436c 49be
000000d0: 92a5 553c a91e c4bc 9ea9 e23d ed13 cbbd
000000e0: 4aa5 543d 3e38 06be 4e61 b83b 807e 283e
000000f0: fe37 243d cd64 9839 7a4d 1f3e 938f 3ebe
00000100: 3ea0 b1bd cdb5 3e3c d352 dbbb 0882 903d
00000110: 2dd9 7abc 82a1 b7bd 7186 07be f2fb eebd
00000120: 6a59 cf3d 5a18 4abe 33ea 15be fb32 75be
00000130: afa1 82bd 17b6 fabc e2db b6bd 790f 3abd
00000140: f956 633d 9d4f 6cbd 6edb 2dbd 7e9a bdbc
00000150: 475a c13d 15b2 9e3d d110 01be aeb2 e0bc
00000160: fd24 7dbd 8a6c bdbd 841b 19bd dd36 d3bd
00000170: b3f3 93bc 6541 27be 095e de3d 35a8 f6bd
00000180: 39f9 823c bd59 8e3d ad72 6ebd c038 abbd
00000190: 2df0 1bbe 42b1 b7bd 810b 133e 064d 2d3c
000001a0: 5d6e 8ebd 7955 aebd c9da c03c 00a8 e33d
000001b0: 85f9 d8bd 361e d6bc ec37 a3bd b974 403d
000001c0: 6b79 ffbd 6f26 b63c 26d2 c63d 9d58 ccbd
000001d0: e307 0abe 4ba0 3a3d 812e a93d 8f9f 3abd
000001e0: 2c3b af3d 3aa2 76bc a841 c83c 41ff a7bd
000001f0: 4571 68bd 6e16 bc3d 71fe e63b b214 ef3d
00000200: 3a2b 84bd 39a1 21be c2af be3d 6c84 b2bc
00000210: f661 8f3d a5a1 dcbd 6b21 90bc 71cf 923d
00000220: 65cd 703c c2bf 743d 76aa 36bd 435a f1bc
00000230: 5f58 1fbe 9d82 813d ea2b b93d 1613 683c
00000240: de34 e2bc bf8e 78bd cbca f9bd 010f e4bd
00000250: caf7 8ebd 64cb 32bd 9d77 e6bd 8259 893e
00000260: 5f62 0ebe 9f5f ebbc 6525 f33d 5a0b c9bd
00000270: 4630 083e e786 0b3e 51bb c03e 2eb6 41be
00000280: 18f4 b1bd a2c4 573d 4156 6bbd 172a a73d
00000290: 8114 1f3d 0b20 bbbc 45c3 c9bc 0650 0d3d
000002a0: 0eb9 013d 34f3 1e3d 8c8b 683d 3839 a93d
000002b0: f508 b33d 26e4 0f3e 57ad d03c 7922 cdbc
000002c0: 5677 aa3d d23b 70bd 9c50 8cbd 4cb3 4c3d
000002d0: b9d5 5bbd 1090 0d3e 4e44 b1bd e873 783c
000002e0: 6677 603d d8a7 c63c 2c37 a4bd 05eb a03d
000002f0: 1505 373e b74b 3e3c 9722 053e 8151 043d
00000300: c17b e03b da8a 49bd e6f5 463c 8834 df3d
00000310: 2188 59bd 4f4c a0bd 0af8 01be efd6 ff3c
-0.13627878 0.32231933 0.1522457 -0.04338702 -0.13081287 0.11252071 -0.06683563 0.14016221
0.4646482 0.03160233 0.021000307 0.08084301 0.067686 -0.010259852 0.18289831 -0.059845872
0.15515672 0.03559901 0.039353 0.026149638 -0.06623952 -0.01144175 0.104546234 0.16655694
0.006073684 0.05800968 0.098622344 -0.0004554384 0.018499613 -0.11028882 -0.073969536 0.16744815
0.04955954 -0.12348779 -0.016675865 -0.0779196 -0.005991915 -0.054329384 -0.037530955 0.030885166
-0.11148742 0.094763145 -0.042177018 -0.14307462 -0.08408193 -0.09297308 0.11847963 -0.07526416
-0.11666995 -0.15774049 0.08577462 -0.19670205 0.013039963 -0.023940401 0.11067508 -0.0991591
0.051915444 -0.13107392 0.005626834 0.16454506 0.04009246 0.00029066802 0.15556899 -0.18609457
-0.08673142 0.011640024 -0.006693223 0.070560515 -0.015310568 -0.08966352 -0.13234879 -0.116691485
0.10124476 -0.19735852 -0.14640121 -0.23945229 -0.06378495 -0.030604405 -0.08928658 -0.045424912
0.055502865 -0.057693113 -0.042445593 -0.023144957 0.09441047 0.0774881 -0.12604071 -0.027428951
-0.061802853 -0.09249218 -0.037379757 -0.10313199 -0.01806054 -0.1633354 0.108577795 -0.12043802
0.01598798 0.0695071 -0.058214832 -0.083604336 -0.15228339 -0.08969356 0.14359857 0.010577446
-0.06954644 -0.08512396 0.023541825 0.11116028 -0.10594467 -0.026137453 -0.079696506 0.046986315
-0.124743305 0.022235123 0.097080514 -0.09977839 -0.13479571 0.045563024 0.08260823 -0.045562323
0.08556208 -0.015053326 0.02444537 -0.08202983 -0.056748647 0.091839656 0.0070493747 0.11673869
-0.06453557 -0.15784158 0.09310867 -0.02179166 0.070011064 -0.10773019 -0.01759406 0.071684726
0.014697407 0.059753187 -0.044596158 -0.029461985 -0.15561055 0.06323741 0.09041579 0.014164707
-0.0276131 -0.06068301 -0.12196883 -0.11135674 -0.06980856 -0.043651 -0.11253283 0.26826102
-0.13904713 -0.02873212 0.11872367 -0.09816618 0.13299665 0.1362568 0.3764291 -0.18917152
-0.08689135 0.052677758 -0.057455305 0.08162325 0.038837913 -0.022842428 -0.024629245 0.034500144
0.031670623 0.038806155 0.056773707 0.08262867 0.08741943 0.14051875 0.02547328 -0.025040852
0.08323543 -0.0586508 -0.068513125 0.04997568 -0.05367062 0.13824487 -0.08655606 0.015164353
0.054801367 0.024249956 -0.08018336 0.078573264 0.17873032 0.0116147315 0.13001476 0.03230429
0.00685069 -0.049204685 0.012143588 0.108986914 -0.05310834 -0.07827055 -0.12692276 0.031230418

lstm.bias_hh_l1 f4 [200]
00000000: 11ef 60bd 633b 793e 6dd2 bc3d a320 d53d
00000010: bd19 05be 169b 57bd 14db f8bd 48b9 313d
00000020: 255d 1b3f b5fc 25bd bc44 6ebc b30b 033e
00000030: 134a f0bd b5cd 543e aeb7 2e3e c5a6 10be
00000040: 25cf 1b3e c02f f93c 7e25 e03d aac0 ed3d
00000050: 0d6d a6bd cd36 303e 2c60 6dbd ead8 353e
00000060: 0a72 b03d 521d 3a3d 53ab bdbd 8ae5 493d
00000070: d8ed 6c3d 923c 6abd 4d6a 883d 0ab0 bb3c
00000080: ef90 debd 9506 dcbd e1d1 2e3c b9c9 65bd
00000090: d363 b9bc f658 65bd c842 ce3d 8560 b03a
000000a0: bbe1 bfbd 914c 92bc 9a2d c63a 44e2 453d
000000b0: a500 3e3d 164f cb3d 9c11 57bd a1e0 a5bd
000000c0: 02d3 da3c 20d5 91bd 69eb 56bc f6ab 18be
000000d0: b598 96bd ed4b 11be d1e7 813c 97a6 bfbd
000000e0: 641c 19bd 96b1 01be 7f82 51be 818f 3d3d
000000f0: b464 18be a8d9 263e 9b23 c13d 257a ddbd
00000100: 0bd5 0cbb 75f0 c13b ccad fcbd 86d5 e2bc
00000110: 9fa6 fabc cadf 87bd d868 493d ea76 b93d
00000120: 91a9 00be b5b3 80bd f425 19be 20c0 28be
00000130: b0db 8b3c 12c5 86bb 93d2 88bd 90fc 003d
00000140: d796 9fbd 5919 adbd 5184 78bd 55f5 bc3d
00000150: 75dd b53d 8ed9 063e 1457 f0bd faf9 193d
00000160: 4d1b e73d b006 8fbd 88f3 87bd 9627 3dbd
00000170: 3396 21be ce55 b13c d9d5 833d 56cb 60bd
00000180: 49ec 03be 9dcc 0bbe 6dd2 c13d a37f d73c
00000190: 104b e6bd 2abc 30bd a1e9 b43d aaf3 893d
000001a0: 0a2b 163e 523b b1bd 53d8 18bd 1f42 ba3d
000001b0: 927d e83d 4cd0 45bd f7a1 113e 1363 d93d
000001c0: a2eb 5c3b 588a 3f3d 1d53 a33b 104d 593d
000001d0: 7a63 99bd 5751 463d b017 01be a43b 2b3c
000001e0: 6fb7 623c 7fd1 24bd b30f cebd cb53 06bd
000001f0: 2be3 80bd 847f 803d bbe3 213d 6a1e b4bd
00000200: 0fff babd 9660 9b3d 6897 ac3d 0692 30bc
00000210: ba8f 10ba c5b9 3ebc 412f e03d 0261 cabd
00000220: a431 79bc 27a8 2e3d a184 03bd 9458 1f3d
00000230: f037 eebd caf7 d4bd b82e 0abd c709 c8bd
00000240: 25ea 07bd e603 923c ab75 723c e04b 79bd
00000250: e943 cc3d 0244 853b 951e dfbd fe98 963e
00000260: ae39 b0bc 3898 0f3e 6725 70bd 1c06 08be
00000270: 7913 e2bd fbd5 ed3d e8ca b13e 0194 293d
00000280: f365 3cbd 5ae2 113c fd14 b13c b86f 7e3d
00000290: c4c6 053d e764 eb3a 2022 e2bd 767f 4cbd
000002a0: f0c7 5ebc 9b2a cc3d 95b7 a13d b4bd 113e
000002b0: 9f9e aa3d 0d5c 413e 2985 2a3d a8f7 4c3d
000002c0: b2fd 28bd b2e0 283e c854 a93d 8acf d6bd
000002d0: bc23 44bd 1a2e bfbd 149d 2abd 9b80 b93d
000002e0: 7f99 b23d af4f 9abd 96e9 cfbd 6f9e 073e
000002f0: ef67 443c 942a 163e 62fa b1bd 3eae 103e
00000300: a463 7f3d 8d29 d23d debb feba 04df b2bd
00000310: 667c 5ebc 7591 943d c223 823c 2520 e6bd
-0.05491549 0.2433906 0.09219823 0.104066156 -0.129981 -0.052638136 -0.12151161 0.04338959
0.60689 -0.040524203 -0.014542755 0.12797432 -0.117328785 0.20781596 0.17062256 -0.14126118
0.15215738 0.030418277 0.10944651 0.116090134 -0.081262685 0.17208405 -0.057953045 0.17758527
0.08615501 0.04543812 -0.09261193 0.04929117 0.057844013 -0.05718667 0.066609 0.02291109
-0.10867488 -0.10743443 0.010670156 -0.05610058 -0.022630608 -0.055993043 0.10071331 0.00134565
-0.093692265 -0.017858775 0.0015119791 0.048311487 0.046387333 0.09927194 -0.052507028 -0.08099485
0.026711944 -0.071207285 -0.01311765 -0.14909348 -0.07353345 -0.1418912 0.015857609 -0.09357946
-0.03738059 -0.126654 -0.20459937 0.046279434 -0.14882165 0.16293967 0.09430619 -0.10814313
-0.0021489288 0.0059185573 -0.123378366 -0.027689707 -0.03059703 -0.06634481 0.049172252 0.09055884
-0.12564684 -0.062842764 -0.14955884 -0.1647954 0.017072529 -0.004112848 -0.06680789 0.031490862
-0.07792442 -0.084521 -0.06067306 0.09226481 0.0888013 0.13168928 -0.11735359 0.03759191
0.11284504 -0.069836974 -0.06638247 -0.04618033 -0.15779953 0.02164736 0.064372726 -0.054881416
-0.12883104 -0.13652273 0.09463964 0.02630598 -0.11244786 -0.043148197 0.08833624 0.06735928
0.14664856 -0.086538926 -0.037315678 0.09094643 0.11352076 -0.04829435 0.14221941 0.106146
0.0033709784 0.046762794 0.004984273 0.05305201 -0.07489677 0.048417415 -0.12606692 0.010451231
0.013837679 -0.040238854 -0.10061588 -0.032794755 -0.06293329 0.06274322 0.03952382 -0.087948635
-0.0913068 0.07586782 0.08427316 -0.010777002 -0.0005514581 -0.011640971 0.10946513 -0.09881784
-0.015209589 0.04264083 -0.032108907 0.038902834 -0.11631763 -0.103988245 -0.03373596 -0.0976749
-0.033182282 0.017824125 0.014798562 -0.060863376 0.0997389 0.004066945 -0.10894505 0.294136
-0.021511879 0.1402291 -0.05862942 -0.1328358 -0.1103887 0.11613079 0.34725118 0.041400913
-0.045995664 0.008904064 0.021616453 0.062118262 0.03266026 0.0017959148 -0.11041665 -0.049926244
-0.0135974735 0.09969064 0.078963436 0.14232522 0.08331036 0.18882771 0.041630898 0.05004087
-0.041257568 0.16491964 0.08268124 -0.10488804 -0.04788564 -0.09334965 -0.041653708 0.09057733
0.08720683 -0.0753473 -0.10151975 0.13244031 0.01198767 0.1466468 -0.08690335 0.14128968
0.062350884 0.102618314 -0.0019434651 -0.08733943 -0.013579464 0.07254306 0.015886191 -0.112366

fc.weight f4 [1, 50]
00000000: b0e7 b0bd 52d9 7bbe ab5a 353e 8fd9 10be
00000010: a2f0 bebd 5cdd c23d c249 f2bd aaaf 2e3e
00000020: df11 cabe dc97 dbbd 0b09 febd ec39 ffbd
00000030: 4aa9 36be eac4 fa3d c8c4 5b3e 8fd9 003e
00000040: 73a6 3b3e 44e8 5abd a3d5 493e 4de4 d3bd
00000050: a2f9 043e 3c5c 1ebe 65d8 733d 389f 02be
00000060: 9fee 4ebe a3ff 253e 6404 443d f0de 13be
00000070: 3c0d 1c3e 3b8a f83d 7f6d c0bd 0463 013e
00000080: 5e42 173e 6dfb c33d a075 323e 7006 3dbe
00000090: b6fa be3d fda2 dbbd 3837 36be 54d6 443e
000000a0: cac5 d43d 6b5f 41be c980 3a3e 15e8 9bbd
000000b0: e99b 53bd e800 b8bd c1db c63d e4df 54be
000000c0: a0e3 da3d 25d3 ec3d
-0.08637941 -0.2459462 0.17710368 -0.14145492 -0.09323241 0.09514877 -0.118304744 0.17059198
-0.3946676 -0.10722324 -0.124040686 -0.124622196 -0.17838016 0.122445896 0.21461785 0.12582992
0.18325214 -0.053444162 0.19710402 -0.10346279 0.12985852 -0.15464872 0.05953254 -0.1275605
-0.20208214 0.16210799 0.04785575 -0.14440513 0.15239424 0.1213574 -0.09395885 0.12635428
0.14771411 0.0956944 0.17427683 -0.18459487 0.09325163 -0.10724447 -0.17794502 0.19222385
0.10389288 -0.18884055 0.1821319 -0.076126255 -0.05166236 -0.08984548 0.097098835 -0.20788532
0.10687947 0.1156371
