VVR-Workshops/ANN-RandomData/ann_model.pth (torch, 14381 bytes, 5 tensors)

nn.0.weight f4 [64, 10]
0	0x3e353deb	0.17699401
1	0xbdbdd3f1	-0.0926894
2	0xbe825ccf	-0.25461432
3	0x3e20feab	0.15722148
4	0xbd3ff1b0	-0.04686135
5	0x3e428b8f	0.1899855
6	0xbddfb82e	-0.10923801
7	0xbe31eaa5	-0.17374666
8	0xbe29043b	-0.1650552
9	0x3c54d690	0.012990609
10	0x3ab7ade6	0.0014013618
11	0x3e10935f	0.14118718
12	0x3e83adc7	0.2571852
13	0xbe9cbf53	-0.3061472
14	0xbd808eda	-0.06277247
15	0x3e1b9d5c	0.15196747
16	0xbdf6c95a	-0.120501235
17	0x3dbb752c	0.09153208
18	0xbe68a08a	-0.22717491
19	0xbde25765	-0.110518254
20	0xbe60dfd5	-0.21960385
21	0x3eae50e4	0.3404609
22	0xbdae06b2	-0.08497371
23	0x3e5bd223	0.2146688
24	0xbe0cc7cd	-0.13748093
25	0xbea2bbee	-0.31784004
26	0x3e833f23	0.25634107
27	0x3e5e4400	0.21705627
28	0x3daa96a9	0.083295174
29	0xbda997d2	-0.082809106
30	0xbdd9a15d	-0.10626481
31	0x3e68b0b4	0.22723657
32	0x3dd00bf7	0.10158532
33	0x3d85a097	0.06524771
34	0x3e9488f7	0.29010746
35	0x3cc40d6f	0.023932187
36	0xbe480fac	-0.19537228
37	0xbe8b390b	-0.27191958
38	0x3def3622	0.11680247
39	0xbe8de6f0	-0.27715254
40	0xbdb76f51	-0.08956779
41	0xbdb5c5df	-0.088756315
42	0x3cfecc9a	0.031103421
43	0x3e12f7f9	0.14352407
44	0xbe2cd7e4	-0.1687923
45	0xbe98dfc9	-0.29858235
46	0x3e422716	0.18960223
47	0xbe2390f3	-0.15973262
48	0x3ddb2f4c	0.107023805
49	0xbd2dd6f3	-0.04244132
50	0xbe0f6819	-0.14004554
51	0x3e1741c2	0.14771178
52	0xbb2ac527	-0.0026057453
53	0xbe0f8070	-0.14013839
54	0x3e1abc92	0.15110996
55	0x3ccb0fff	0.024787901
56	0xbe9dd893	-0.30829296
57	0xbdfc7380	-0.123267174
58	0x3e652222	0.22376302
59	0x3e30ea69	0.1727692
60	0xbd51c625	-0.051214356
61	0xbdf17d0b	-0.11791428
62	0x3e3fc3df	0.18727063
63	0x3debc759	0.11512632
64	0xbe162b36	-0.14664921
65	0xbd163bae	-0.03667801
66	0xbbc23221	-0.005926386
67	0x3c089037	0.008335165
68	0x3e1c7303	0.15278248
69	0xbd36a865	-0.044594187
70	0x3d5afe53	0.0534652
71	0xbe6e1dd2	-0.23253563
72	0x3e628292	0.22120121
73	0x3d350557	0.044194546
74	0xbe2aaef1	-0.16668297
75	0x3e691a7c	0.22764009
76	0x3e0d5a10	0.13803887
77	0x3e631a96	0.2217811
78	0x3ce20690	0.02759102
79	0x3e902fa5	0.2816135
80	0xbe85f49c	-0.26163185
81	0xbdc75dd7	-0.097346954
82	0x3db9a882	0.090653434
83	0x3d500a8e	0.050791316
84	0xbe3d7a75	-0.18503745
85	0xbe9814c5	-0.29703346
86	0x3d3ac443	0.045597326
87	0xbe2a3e56	-0.16625342
88	0x3e1f21dd	0.15540262
89	0xbe6207e3	-0.22073321
90	0x3daf6ff4	0.08566275
91	0x3e708a71	0.23490311
92	0x3e25ad4d	0.1617939
93	0x3d905f57	0.07049435
94	0x3de15687	0.11002832
95	0xbe1e1018	-0.15435827
96	0xbe3bd119	-0.18341483
97	0x3d01976d	0.03163855
98	0x3d1289a0	0.03577578
99	0x3ea044eb	0.3130258
100	0x3df25972	0.118334666
101	0x3e7e5467	0.24836884
102	0x3e81f9d7	0.25385925
103	0xbe5c925d	-0.21540208
104	0xbd8ad6d7	-0.06779259
105	0x3e057273	0.1303194
106	0x3e82ecba	0.25571233
107	0xbe651677	-0.22371851
108	0xbe2d56e6	-0.1692768
109	0xbc0cd638	-0.008595996
110	0x3e107e12	0.14110592
111	0x3e1bfb94	0.15232688
112	0xbe088ff3	-0.13336162
113	0x3e2967ce	0.16543505
114	0x3e02adb7	0.1276158
115	0xbe493eb6	-0.19652829
116	0xbe4f3946	-0.20236692
117	0xbe1f942b	-0.15583865
118	0x3e6f02d5	0.23340924
119	0x3e9ad108	0.30237603
120	0x3e16efeb	0.14739959
121	0x3d912837	0.070877485
122	0x3e97c0f5	0.29639402
123	0xbe07ef1b	-0.13274805
124	0x3e1e4b7a	0.1545848
125	0xbe37482a	-0.17898622
126	0x3d6df4d5	0.05809482
127	0xbddc683a	-0.10762067
128	0x3c10d3f6	0.008839598
129	0x3ddf98db	0.10917827
130	0xbe54059b	-0.20705263
131	0xbe5592fd	-0.20856853
132	0xbba2664e	-0.0049560433
133	0x3bfe2f67	0.0077571156
134	0xbe62e153	-0.22156267
135	0x3e8117ac	0.25213373
136	0xbdc31966	-0.09526329
137	0x3daecf08	0.08535582
138	0x3e825577	0.2545583
139	0xbe886e1c	-0.26646507
140	0x3d12a61a	0.035802938
141	0x3e89fc62	0.26950365
142	0xbd8b6641	-0.06806613
143	0xbe22adb0	-0.15886569
144	0x3de86936	0.113481924
145	0xbe8052ee	-0.2506327
146	0x3dfef834	0.12449685
147	0xbdb67f68	-0.089110196
148	0x3d996549	0.07490022
149	0x3c33bcd7	0.010970316
150	0x3c2a3277	0.010388008
151	0x3d84056a	0.06446345
152	0xbccc8cbd	-0.024969453
153	0xbe1f3295	-0.1554664
154	0xbd453bae	-0.048152618
155	0x3dc73a6f	0.09727942
156	0xbd5f01ec	-0.054445192
157	0x3b432cce	0.0029781344
158	0xbe0ae338	-0.1356324
159	0xbcc2dbbb	-0.023786416
160	0xbde41cd6	-0.111383125
161	0x3e27bdbc	0.16380972
162	0x3cc7a7e2	0.024372045
163	0xbe5ae796	-0.21377406
164	0x3e85202a	0.26001102
165	0xbeaba534	-0.33524477
166	0x3d86174a	0.06547411
167	0x3e186092	0.14880589
168	0x3e1e9ab2	0.15488699
169	0x3cc94047	0.024566783
170	0xbe80f071	-0.25183442
171	0x3e7ecba1	0.24882366
172	0xbe2e6be3	-0.17033343
173	0x3dc50acb	0.09621199
174	0x3c718f47	0.014743633
175	0x3e47eab6	0.19523129
176	0xbea38f8f	-0.31945464
177	0x3db57d1a	0.08861752
178	0xbe151184	-0.14557463
179	0xbe6892c8	-0.22712243
180	0x3e7d73bc	0.2475118
181	0x3e310b72	0.17289522
182	0x3db744b9	0.08948655
183	0xbe2ff906	-0.17184839
184	0x3e93aeed	0.28844395
185	0x3e86199b	0.2619141
186	0xbe81267d	-0.25224677
187	0x3dd99d34	0.10625687
188	0x3b977a4b	0.0046227328
189	0xbe9b0339	-0.30275896
190	0x3e61c45f	0.22047566
191	0x3e8e43fb	0.2778624
192	0x3e91505e	0.28381628
193	0x3d81b6e0	0.06333709
194	0xbe845cd7	-0.2585208
195	0x3e17898c	0.14798564
196	0xbe438961	-0.19095375
197	0xbdc99877	-0.098435335
198	0xbe95c455	-0.29251352
199	0x3dccb58f	0.09995567
200	0x3d9ddc26	0.077080056
201	0x3da697bd	0.081344105
202	0xbe2183e4	-0.15772969
203	0x3e05b3e5	0.13056906
204	0xbe550f69	-0.2080666
205	0xbe7ff24f	-0.24994777
206	0xbe191518	-0.14949453
207	0x3d2ab66a	0.04167787
208	0xbdebabde	-0.115073904
209	0xbd0d79fa	-0.034540154
210	0x3e8e49f5	0.277908
211	0xbe7b4dd8	-0.24541414
212	0x3e37cdbe	0.17949578
213	0xbe02b964	-0.12766033
214	0x3e546379	0.20741071
215	0xbe46fe26	-0.19432887
216	0xbe87aefc	-0.2650069
217	0x3e74d71d	0.23910184
218	0xbdb0849d	-0.08619044
219	0xbe8bdc9a	-0.27316743
220	0xbe9482d7	-0.29006073
221	0xbe915a4a	-0.28389198
222	0x3d393b18	0.04522237
223	0x39063561	0.00012799121
224	0xbe5a96b0	-0.21346545
225	0xbe3e2cf9	-0.18571843
226	0x3cee4436	0.02908526
227	0x3e513429	0.20430054
228	0x3e3ee40c	0.1864168
229	0x3cc48496	0.023989003
230	0xbceca7c9	-0.0288886
231	0x3e55b13c	0.20868391
232	0x3e88f90f	0.26752517
233	0x3e869c11	0.26290944
234	0x3d81c78f	0.06336891
235	0x3da2d1d7	0.0795018
236	0xbdecc1b8	-0.115603864
237	0xbe496afa	-0.19669715
238	0xbe8a7c87	-0.27048132
239	0x3c303ddc	0.010756936
240	0xbe8c2613	-0.27372798
241	0x3db01138	0.08597034
242	0xbd60041b	-0.054691415
243	0xbdfcb33a	-0.12338872
244	0xbe8038e6	-0.2504341
245	0x3e9995bf	0.2999706
246	0xbdea85f8	-0.11451334
247	0xbe535c26	-0.2064062
248	0xbe447d0e	-0.1918833
249	0xbe212d3a	-0.15739909
250	0x3e1b4a6b	0.15165107
251	0x3e0fca92	0.14042118
252	0xbe86f4d3	-0.2635866
253	0xbdb94ff5	-0.09048454
254	0x3e00d925	0.12582834
255	0x3e8b5c9e	0.272191

nn.0.bias f4 [64]
0	0x3d823243	0.06357243
1	0xbe0e0848	-0.13870347
2	0x3e737f2a	0.23778978
3	0xbddd0b88	-0.10793215
4	0x3e98f6b7	0.29875728
5	0xbdbaf224	-0.09128216
6	0xbd8f0399	-0.06983108
7	0x3d0117ff	0.031517025
8	0x3e4c9dc0	0.19982052
9	0x3cf273dc	0.029596262
10	0xbe8a8f71	-0.27062562
11	0x3e0fb1a7	0.14032613
12	0x3e6cf012	0.23138455
13	0xbe12b356	-0.14326224
14	0x3bd9f81e	0.0066518923
15	0x3e111a21	0.14170124
16	0x3dd1906c	0.102326244
17	0x3e15d0a0	0.14630365
18	0x3d18ccd2	0.037304707
19	0xbea832b3	-0.3285118
20	0xbd80db2b	-0.06291803
21	0x3e29a728	0.16567671
22	0x3d4d887f	0.050179
23	0xbe8db829	-0.27679566
24	0xbe025748	-0.12728608
25	0xbe8ce625	-0.27519336
26	0x3d8abc3c	0.06774184
27	0xbd9220f0	-0.071351886
28	0xbea22140	-0.31665993
29	0xbd77887b	-0.060432892
30	0x3cfa6e8d	0.030570293
31	0xbdeef465	-0.11667708
32	0x3b9ceb86	0.004788819
33	0xbe8c627e	-0.27418894
34	0x3d97386d	0.07383809
35	0xbe7bf61b	-0.246056
36	0xbd32d658	-0.043661445
37	0x3e878c1b	0.2647408
38	0x3e51d2be	0.20490548
39	0xbe32ba48	-0.17453873
40	0x3e8a26d1	0.2698274
41	0x3e9191c0	0.2843151
42	0xbdcc61a4	-0.09979561
43	0xbc0225a5	-0.0079435455
44	0xbe4ee317	-0.20203815
45	0x3dffb7d8	0.12486237
46	0xbe2543fd	-0.16139217
47	0xbc707e38	-0.01467853
48	0x3e7efeac	0.24901837
49	0x3cd854d1	0.026407631
50	0xbdbb957d	-0.09159372
51	0xbde29834	-0.11064187
52	0x3d560bf7	0.052257504
53	0x3e87258f	0.26395842
54	0xbaa5f159	-0.0012660428
55	0x3e37d86e	0.17953655
56	0x3e5be6f8	0.21474826
57	0x3db4c586	0.08826737
58	0xbe78dcfd	-0.2430305
59	0x3d14e3dd	0.03635012
60	0xbe1e0cf4	-0.15434629
61	0x3e680246	0.22657117
62	0x3e84e959	0.2595928
63	0xbe999600	-0.29997253

nn.2.weight f4 [32, 64]
0	0xbdedfce8	-0.11620504
1	0x3cd817b4	0.02637849
2	0xbde804a0	-0.11329007
3	0x3de1c88d	0.1102458
4	0x3db8c46a	0.09021838
5	0x3d2edf4f	0.042693432
6	0x3d242f1d	0.040083993
7	0x3df176ee	0.11790262
8	0x3d22fb16	0.039790235
9	0xbde1ac3b	-0.110191785
10	0x3e039b41	0.12852193
11	0x3db24f30	0.0870651
12	0x3d8b9bf4	0.06816855
13	0x3d662d3a	0.056195475
14	0x3dd0486b	0.10170063
15	0xbcedd229	-0.029030876
16	0x3d3842e0	0.044985652
17	0xbd13dbee	-0.036098413
18	0xbd752985	-0.05985405
19	0x3d93bf37	0.07214206
20	0x3ddee1ab	0.108828865
21	0xbda15acc	-0.07878646
22	0xbd25ec2b	-0.04050843
23	0x3d5f1483	0.05446292
24	0x3d024c26	0.031810902
25	0xbd83fffa	-0.06445308
26	0x3b8ef27f	0.004362404
27	0xbd4f7c0b	-0.050655406
28	0x3cc20303	0.023683077
29	0x3d0e6cff	0.034771916
30	0x3df36101	0.118837364
31	0x3d366bcd	0.0445364
32	0xbdca4e64	-0.09878233
33	0x3de57b1b	0.11205121
34	0x3d5db780	0.054130077
35	0xbcbe7217	-0.023247762
36	0x3dfebd57	0.124384575
37	0xbdac62d1	-0.08417285
38	0xbd9c88ba	-0.07643266
39	0xbd088a2e	-0.033334903
40	0xbcd922e0	-0.026505888
41	0x3e004062	0.1252456
42	0x3d1a5b3d	0.037684668
43	0x3daf725d	0.08566735
44	0xbb312b7e	-0.002703398
45	0xbdc1de7c	-0.09466264
46	0xbd0f7fef	-0.035034116
47	0xbd39ddee	-0.045377664
48	0x3c7c5e9b	0.015403415
49	0x3dffcb3c	0.12489936
50	0x3dc50a8f	0.096211545
51	0xbdd4a36e	-0.10382734
52	0xbd8cdbaf	-0.06877839
53	0x3d3720c1	0.04470897
54	0xbc59ecaf	-0.013301059
55	0xbd89b486	-0.06723885
56	0x3c277254	0.010220129
57	0x3d377dd8	0.04479775
58	0xbd3552c1	-0.044268373
59	0x3d838316	0.06421487
60	0x3de2e4c7	0.11078792
61	0x3d69ead9	0.057108734
62	0xbdfab3ce	-0.12241326
63	0xbd6d6a95	-0.057962973
64	0x3e027bbc	0.12742513
65	0xbb8d2c7b	-0.004308281
66	0xbdb838b9	-0.08995194
67	0x3dd83cb8	0.10558456
68	0xbde82177	-0.11334508
69	0x3df21f1e	0.118223414
70	0x3da2d71d	0.07951186
71	0xbd30c5ea	-0.043157496
72	0xbdf02d49	-0.117273875
73	0xbd85e4eb	-0.06537803
74	0xbda78485	-0.08179573
75	0x3b907002	0.0044078836
76	0x3dcb1131	0.099153884
77	0x3d814b23	0.06313159
78	0x3d89eeb2	0.06734981
79	0x3cc12acc	0.023579977
80	0x3d37af6f	0.04484504
81	0xbdae744c	-0.085182756
82	0xbc546fef	-0.01296614
83	0x3d93c3e7	0.072151
84	0xbda46a9a	-0.08028145
85	0xbd769463	-0.060200106
86	0xbd9a1a4a	-0.075245455
87	0xbd9ab38f	-0.07553779
88	0xbb95540e	-0.0045571392
89	0xbc5f8ac0	-0.01364392
90	0x3da62d0b	0.0811406
91	0x3d2a32c0	0.041552305
92	0x3cb69c35	0.022291282
93	0xbdf6554a	-0.12027986
94	0x3dd7930c	0.10526094
95	0xbdb911df	-0.09036612
96	0xbb92b95a	-0.004477662
97	0xbdf268b3	-0.11836376
98	0xbdb5f6bd	-0.08884952
99	0xbdb00729	-0.08595116
100	0x3cc683c1	0.024232747
101	0x3dcb9356	0.099402115
102	0xbdb29441	-0.087196834
103	0xbdc6872e	-0.09693752
104	0x3d19b17f	0.03752279
105	0x3d5ce407	0.0539284
106	0xbd93709b	-0.07199212
107	0xbceaa558	-0.028643295
108	0x3d94a09c	0.07257196
109	0xbd096167	-0.033540156
110	0xbdff4178	-0.12463659
111	0xbd74da89	-0.059778724
112	0x3c9239df	0.01784986
113	0xbd4d4998	-0.050119013
114	0x3d678e91	0.056532446
115	0xbdb2f1eb	-0.087375484
116	0x3daabd20	0.08336854
117	0xbd820c6a	-0.06350024
118	0x3dce0c88	0.10060984
119	0x3d999ca7	0.07500582
120	0xbdf1f6c5	-0.11814646
121	0x3d2b72cb	0.041857522
122	0xbde9444e	-0.11389981
123	0xbd97c3a1	-0.0741036
124	0x3d55c4e6	0.05218973
125	0xbc934133	-0.017975425
126	0xbd130dc9	-0.03590182
127	0xbda4a42a	-0.08039124
128	0x3c31f628	0.010861911
129	0xbd7aa948	-0.061196595
130	0x3df09ffc	0.117492646
131	0x3d2e8396	0.04260596
132	0x3dbb6fd8	0.09152192
133	0x3d4f3fbd	0.050597895
134	0x3c5d5501	0.013509036
135	0x3c7f344e	0.015576435
136	0x3d89adc1	0.06722594
137	0xbdb6baaf	-0.08922326
138	0xbdaf457a	-0.085581735
139	0x3da25359	0.079260536
140	0xbd1a7aac	-0.037714645
141	0x3d3e9279	0.046526406
142	0x3e0b31fc	0.13593286
143	0xbda60b7e	-0.08107661
144	0xbd958875	-0.07301418
145	0x3dcc1582	0.0996504
146	0xbcfffdc9	-0.031248944
147	0xbcdd30fe	-0.0270009
148	0xbbd27888	-0.00642306
149	0xbe03df2b	-0.128781
150	0xbd98ab9d	-0.07454608
151	0xbd178c82	-0.036999233
152	0x3d66d500	0.056355476
153	0x3d90810a	0.07055862
154	0xbcb5e75b	-0.022205045
155	0xbd896d68	-0.06710321
156	0x3dc818e6	0.09770374
157	0xbd6b488e	-0.05744224
158	0xbd9a87ef	-0.075454585
159	0xbe002946	-0.12515745
160	0xbd10e053	-0.035370182
161	0xbd25db29	-0.04049221
162	0x3c3f52f8	0.011677496
163	0x3d838b3d	0.06423042
164	0x3d1880d3	0.03723223
165	0x3d506efa	0.050887085
166	0x3d3445c5	0.04401185
167	0x3d5d8e94	0.05409105
168	0x3d8898ab	0.06669744
169	0xbc870a17	-0.016484303
170	0x3d445aef	0.047938284
171	0x3c35dd9c	0.011100199
172	0x3d772d42	0.060345896
173	0x3dd27d45	0.102777995
174	0x3cf7dd4a	0.030256886
175	0x3d1f1278	0.038835973
176	0xbc8d0700	-0.017215252
177	0x3c9f5740	0.019450784
178	0xbb9f61b0	-0.00486394
179	0xbde1975e	-0.11015199
180	0x3dc32b51	0.09529746
181	0xbde2d2c1	-0.11075354
182	0xbdd8446c	-0.105599254
183	0xbdc85b40	-0.097830296
184	0xbd7dffbd	-0.06201147
185	0x3cfa9481	0.03058839
186	0xbdb458b6	-0.08805983
187	0xbd51e0ab	-0.05123965
188	0xbd6d32f6	-0.05790993
189	0xbdffe9bc	-0.12495753
190	0xb8234ea0	-3.8935454e-05
191	0x3d51fd9d	0.051267255
192	0xbb67ba42	-0.003535882
193	0x3dea4165	0.11438254
194	0x3dc09b9e	0.094046816
195	0xbe0461c7	-0.12927924
196	0xbd40a195	-0.047029097
197	0x3d8163ed	0.063178875
198	0x3c407a58	0.011747919
199	0xbd9253b3	-0.071448706
200	0x3d7c4a66	0.06159439
201	0x3d88a0b6	0.06671278
202	0x3db9734f	0.090551965
203	0x3d97446c	0.07386097
204	0xbddba9e1	-0.10725761
205	0xbc838833	-0.016056156
206	0xbd8e2f3f	-0.06942605
207	0xbcc3e8d6	-0.023914736
208	0x3d690f8b	0.05689959
209	0x3d8ce282	0.068791404
210	0x3d8c40e1	0.06848312
211	0x3b967d0b	0.004592543
212	0xbdaf262f	-0.08552205
213	0x3c23e366	0.0100029465
214	0xbda04ac7	-0.07826763
215	0x3ca9e636	0.020739656
216	0x3d8bfd5e	0.06835435
217	0x3de6935f	0.112585776
218	0x3c4b33ed	0.012402517
219	0xbdb94693	-0.09046664
220	0xbd92733e	-0.07150887
221	0xbd1d24b7	-0.038365092
222	0x3d8c2501	0.068429954
223	0xbdc87cb4	-0.0978941
224	0x3d37605c	0.04476963
225	0xbb727a8f	-0.003699932
226	0xbe009dec	-0.12560242
227	0x3da14692	0.07874788
228	0xbc41336e	-0.011792047
229	0xbdc3caa4	-0.09560135
230	0xbc7420ca	-0.014900396
231	0xbdb3799d	-0.0876343
232	0xb98baf73	-0.00026642866
233	0x3d9095cd	0.07059822
234	0xbc5f5e99	-0.013633394
235	0xbda575a9	-0.080790825
236	0xbdf4750a	-0.11936386
237	0x3c0a7f15	0.00845315
238	0x3deb0200	0.11474991
239	0x3c2343a3	0.009964856
240	0xbda4f90d	-0.08055315
241	0xbbd24ee6	-0.006418097
242	0xbd9a80e3	-0.075441144
243	0xbd17ae1b	-0.037031274
244	0xbe0916fc	-0.13387674
245	0x3ce3d223	0.027810162
246	0x3d67a63e	0.056555025
247	0x3dcf8e62	0.10134579
248	0xbd90945b	-0.070595466
249	0xbcadb810	-0.021205932
250	0xbdbb0fa3	-0.09133842
251	0xbce7dea0	-0.028304398
252	0x3cb316a2	0.021861378
253	0xbcc0de72	-0.02354357
254	0x3dc2267e	0.09479998
255	0xbdbe5301	-0.092931755

nn.2.bias f4 [32]
0	0xbdc22d29	-0.0948127
1	0xbd478615	-0.048711855
2	0x3dcca538	0.099924505
3	0xbdd69efe	-0.10479544
4	0x3c0e8bf3	0.008700359
5	0xbdae7a3f	-0.0851941
6	0x3c6ddd91	0.014518158
7	0x3e03dbcd	0.12876816
8	0x3d16b2ff	0.036791798
9	0x39b990a6	0.0003539372
10	0xbdada102	-0.084779754
11	0xbc11ccdc	-0.00889894
12	0xbdd6b9bf	-0.10484647
13	0xbd1395f5	-0.036031682
14	0x3db11144	0.08645871
15	0xbd58104f	-0.052749928
16	0x3c8f60f5	0.017502287
17	0xbdd79362	-0.10526158
18	0x3df534aa	0.119729355
19	0x3dbae502	0.09125711
20	0x3c6d69b5	0.014490535
21	0x3dc61936	0.09672777
22	0xbe01ac80	-0.1266346
23	0x3e03966b	0.12850349
24	0x3dc3c5d7	0.09559219
25	0xbda366ae	-0.07978569
26	0xbd98806e	-0.07446371
27	0xbdae59c8	-0.08513218
28	0xbda4b324	-0.08041981
29	0xbcc61c9e	-0.024183568
30	0x3d2a6a9b	0.041605573
31	0x3de104c0	0.10987234

nn.4.weight f4 [1, 32]
0	0xbdb6ea8e	-0.089314565
1	0x3dc80b35	0.097677626
2	0xbe0977ab	-0.13424556
3	0xbd2a0975	-0.041512925
4	0xbdc63dd5	-0.09679762
5	0x3dbd0716	0.09229867
6	0xbdc09ce3	-0.09404924
7	0x3c887e37	0.016661746
8	0xbd3d0ef5	-0.046156842
9	0x3e25f4e7	0.16206704
10	0xbe10ab44	-0.14127833
11	0x3e088313	0.13331251
12	0xbdbe56fe	-0.09293936
13	0x3daad8f1	0.083421595
14	0xbe1dca85	-0.15409286
15	0xbd81905e	-0.06326364
16	0xbe1504db	-0.14552633
17	0xbdcb0448	-0.09912926
18	0x3d8c80fe	0.06860541
19	0x3d88bba1	0.066764124
20	0xbdef33b9	-0.11679787
21	0xbe020cd7	-0.1270021
22	0x3dc59eb8	0.09649414
23	0x3d977a4c	0.07396373
24	0xbda2ec4c	-0.07955226
25	0x3e229376	0.15876564
26	0xbe20bcce	-0.15697023
27	0xbe37a8a1	-0.1793542
28	0xbdcf8a9c	-0.101338595
29	0x3e2de960	0.16983557
30	0x3cc972be	0.024590846
31	0xbe1f2b75	-0.15543921
